CS273A/Project/models/embedding_nn_model.pth (torch, 55202 bytes, 11 tensors)

embeddings.workclass.weight f4 [10, 4]
000000 88 4e 39 bd bb 9c f5 be 0f 70 5b 3f 04 d3 94 3e
       -0.04524091 -0.47971138 0.8571786 0.29067242
000010 28 b2 58 bf 61 85 8e 3f 31 4d b5 3f dd e4 4d 3c
       -0.84646845 1.1134454 1.4164182 0.012566772
000020 0d d6 28 c0 d2 d9 13 bf 23 1d 45 3f 09 0b c6 bd
       -2.6380646 -0.5775424 0.76997584 -0.096700735
000030 9b bf b7 be ec d5 92 be 43 7f 2a c0 7f f1 25 3f
       -0.3588837 -0.28678834 -2.6640174 0.6482162
000040 66 b5 27 bf a0 28 e8 3c 69 5d a0 bf a3 b1 39 bf
       -0.6551117 0.028339684 -1.2528507 -0.7253668
000050 e2 f1 6b bf f6 f0 1e c0 7c a7 1b bf 2c 73 0b 3f
       -0.9216596 -2.483457 -0.60802436 0.54472613
000060 a1 c5 6a be 04 7a 10 bd c1 4b 62 bf 12 94 03 3f
       -0.22926952 -0.035272613 -0.8839684 0.5139781
000070 bc f2 ed 3d 0f e6 d2 3e b8 fb 72 bf 9f b4 bf 3c
       0.116185635 0.41191146 -0.9491534 0.023401557
000080 0a ff df be 83 60 32 3f 12 dc 4e 3f ed ae 21 40
       -0.43749267 0.69678515 0.8080455 2.5263016
000090 9d c6 21 40 16 7b d1 bf d1 e2 16 3e 5c 33 aa 3d
       2.5277474 -1.6365688 0.14734961 0.08310577

embeddings.education.weight f4 [16, 6]
000000 95 9d d8 bf 3e d5 e4 3f ba f5 f9 be 8b a5 2b bf
       -1.692309 1.7877576 -0.48820287 -0.67049474
000010 82 7e 06 3e 26 12 02 bf f7 0b d4 3f cf 40 ea bf
       0.13134196 -0.5080894 1.6566151 -1.8301028
000020 95 93 91 bf 9c 79 b8 bf 2f fe 6b 3e d9 03 cc 3f
       -1.1373163 -1.4412112 0.23046182 1.5938674
000030 e9 52 6d 3f ce a3 c1 3e b2 b0 aa 3f 5c 3a 32 bd
       0.92704636 0.37820286 1.3335173 -0.043512687
000040 5e a6 ea 3f b1 cf 97 3f 9e 0a ed 3f 58 c9 2f bf
       1.8332021 1.1860257 1.8518865 -0.686666
000050 69 63 2d be 78 da 84 3f c5 44 c6 3f df 69 18 3f
       -0.16932453 1.0379171 1.5489737 0.59536546
000060 63 21 4a bf 3e eb 99 3e 65 97 7e 3f f9 4a 09 c0
       -0.78957194 0.30062288 0.9944976 -2.145201
000070 da 1c 4a 3f 88 58 e3 3f 12 e7 0d 3f 70 31 01 bf
       0.78950274 1.7761393 0.5543071 -0.5046606
000080 d5 39 16 3f 57 57 a0 3e 18 0b 5c 3f fe 18 91 3e
       0.58681995 0.31316635 0.8595443 0.2833938
000090 7c 7b 9d 3f 05 70 93 3f 20 f8 7e bc 9f 57 27 3f
       1.230331 1.1518561 -0.015562087 0.65368074
0000a0 c1 48 e0 3f 2a 04 e5 3f 10 87 06 bf 9a c1 31 3f
       1.7522203 1.7891896 -0.5254984 0.6943604
0000b0 b7 72 df 3c 21 56 16 be bc 3c 90 3e 13 4b 88 3e
       0.02727638 -0.14681293 0.28171337 0.26619777
0000c0 df f0 44 be 0f 87 8c bf 15 6c b7 bf 30 0d c4 3e
       -0.1923251 -1.0978717 -1.4329859 0.3829131
0000d0 78 26 73 3e 88 d7 94 3f 08 6d 39 bf 1a f7 85 be
       0.23745143 1.1628275 -0.72431993 -0.26165086
0000e0 7a bc fd be 14 bf f7 3f e0 12 07 40 11 8a 8c 3f
       -0.4955786 1.9355187 2.110527 1.0979635
0000f0 10 28 eb be 80 14 3d 3f 2a 68 a1 bf 47 ce ba 3e
       -0.45929003 0.73859406 -1.2609913 0.36485502
000100 bf d2 8a 3f 42 a1 86 3f c9 e8 85 3f 42 79 06 bf
       1.0845565 1.0517962 1.0461665 -0.52528775
000110 7b 88 aa 3e 06 0a 30 3e 77 f7 f0 bf fa 26 3d bf
       0.3330725 0.17191324 -1.882552 -0.738876
000120 58 82 28 3e 3f 54 a0 3e f1 91 ea bf 52 ab b8 3e
       0.16455972 0.31314275 -1.8325788 0.36068207
000130 fe 4b 0c 3f c0 9f 1e bf a6 4c be 3f 55 1c 60 bf
       0.54803455 -0.6196251 1.4867141 -0.8754323
000140 32 80 d9 3e 6e e3 29 bf 00 f8 19 40 1d 8a 92 3f
       0.42480618 -0.66362655 2.4057617 1.1448399
000150 b8 1f af bf ad e4 90 bf ae 07 1b bf 55 0e dd be
       -1.3681555 -1.1319786 -0.60558593 -0.43174997
000160 d2 e6 bc 3e 6b 7a 0b bd 83 6b 77 bf 5a b2 8d be
       0.36894852 -0.034052294 -0.96648425 -0.27675134
000170 3c 6a c2 be d5 c3 53 3f c6 65 25 bd 83 4b 73 3e
       -0.37971675 0.8272069 -0.04038026 0.23759274

embeddings.marital-status.weight f4 [5, 3]
000000 d6 c7 74 be dc 1a d6 3e e0 7d 44 bf 39 0b 75 bf
       -0.23904356 0.41817367 -0.7675457 -0.9572025
000010 c9 53 a3 3f d2 fa 9f 3f 01 5d 15 be 0f be 94 bf
       1.2759944 1.2498419 -0.1458626 -1.1620501
000020 54 6c 5b bf 17 8e 6b bf 6c fb 50 bf 2b ea 95 3f
       -0.8571217 -0.92013687 -0.8163364 1.1712087
000030 1d d3 88 bf 7d 31 7e 3f bb 71 11 be
       -1.0689427 0.99294263 -0.14203541

embeddings.occupation.weight f4 [8, 5]
000000 ce 73 b8 3e cd 96 e7 3e 55 c3 d0 3e b8 1e 13 c0
       0.36025852 0.4523224 0.40774027 -2.29875
000010 c0 c9 cf 3d fe 34 cd bf 74 7e f2 bc 83 1d 69 3e
       0.10145903 -1.6031797 -0.029601313 0.22765164
000020 56 47 1d bf 94 93 65 3f 54 a5 d5 3d 93 33 11 c0
       -0.61436975 0.8967831 0.104319245 -2.2687728
000030 a0 ac 77 3f c5 d0 c3 bb 1f 9b 88 bc 3f 53 40 3e
       0.9674778 -0.005975815 -0.01667553 0.18781756
000040 de ef ed be a0 46 ab 3f af 67 ed 3d 94 c2 ab be
       -0.46472067 1.3380928 0.11592042 -0.3354689
000050 1c 57 c6 3f e9 73 4d bf ad c1 9d bf b6 a5 3e 3f
       1.5495334 -0.8025499 -1.232473 0.74471605
000060 cd 4b df bf 67 ad b2 be 61 a3 ab 3f 07 19 35 c0
       -1.7445008 -0.3489792 1.3409234 -2.8296525
000070 ce ec 72 be 25 a8 97 3e f3 24 4a be 07 da f1 be
       -0.23723146 0.29620472 -0.19740658 -0.47236654
000080 41 e9 a5 3f 3b a7 80 3f 94 4c 45 3f 7c 4e 0f be
       1.2961808 1.0051035 0.77069974 -0.13994783
000090 4e cc 55 3f 63 09 aa 3f 78 ef 85 3e 73 04 94 3f
       0.8351487 1.3284115 0.26159263 1.1563858

embeddings.relationship.weight f4 [5, 4]
000000 2f 28 1e bc ae 15 bf 3e 33 09 55 bf 8a 7d 7e 3e
       -0.009653135 0.37321228 -0.8321716 0.24852577
000010 24 a4 8f bf 55 83 46 bf 54 26 21 bf 3e b2 67 3f
       -1.1221967 -0.77544147 -0.6294911 0.9050635
000020 67 96 b9 bf c2 99 a0 3f 5d 8e 76 3e 59 9c f9 3e
       -1.4499024 1.2546923 0.24077745 0.48752096
000030 c2 ea 47 bf c8 08 43 3f 6a b7 c1 3f e8 a8 4a be
       -0.78092587 0.76185274 1.5134099 -0.19790995
000040 09 75 1a 3f d3 bc b9 be ec 89 71 bf 19 0c 66 bf
       0.6033483 -0.36276874 -0.9435108 -0.8986221

embeddings.race.weight f4 [5, 3]
000000 24 a1 a7 3f 86 67 10 40 13 01 47 bf 86 07 36 3f
       1.3096051 2.2563186 -0.77736014 0.7110523
000010 dc 1a a1 bf 3a 0f 8d 3f ed ad 99 be b5 03 10 3f
       -1.2586322 1.1020272 -0.30015507 0.56255656
000020 04 6e f8 3f 8e e4 2a c0 e2 7d 95 bf 6d 9f 00 c0
       1.9408574 -2.6701999 -1.1679041 -2.0097306
000030 40 19 03 bf 12 78 14 3f e9 c4 1a bf
       -0.51210403 0.5799571 -0.6045671

fc1.weight f4 [128, 31]
000000 6f 1a 07 be e5 00 33 3e e2 0b 24 be 23 72 f0 3d
       -0.13193677 0.1748081 -0.16020158 0.1174052
000010 f7 6c 39 be 2f 82 b4 3c 7e 90 39 bc fa 7e 02 3e
       -0.18107973 0.022034733 -0.0113259535 0.1274375
000020 84 c1 e5 3d a9 f8 f4 bd 88 7e 0d 3d a1 fd 4c 3e
       0.11218551 -0.11961491 0.034544498 0.20018627
000030 2d 0e 87 bc 74 75 23 3c 58 99 18 3e e7 56 63 be
       -0.016486252 0.0099767335 0.14902246 -0.2220112
000040 d0 4c 14 3e 35 3d e2 3d 5c 2d 2f bd 4c 9b 17 be
       0.14482427 0.110468306 -0.042767867 -0.14805335
000050 37 3e 95 3d c4 96 17 be 8b da 0b 3e b6 f2 1a 3e
       0.07287257 -0.14803606 0.13657586 0.1513165
000060 49 94 07 be fd 3d 52 bd da b0 34 be 3b c1 3b bd
       -0.1324016 -0.051328648 -0.17645589 -0.045838576
000070 7f 9b 21 3e e0 5d 51 be 45 84 75 3c 61 80 cd be
       0.15781973 -0.20445967 0.014985149 -0.40137008
000080 3c 99 ef bd 14 45 89 bc e4 c5 c2 be 73 a8 46 3e
       -0.11699149 -0.016756572 -0.38041604 0.19400196
000090 18 47 be bd 74 05 7c be 8d c4 0a 3e df 4d 2b be
       -0.09290904 -0.24611455 0.1355154 -0.16728924
0000a0 65 1f 08 3b 3f b2 1e 3c 5d 86 72 3e f0 9c 88 bc
       0.0020770666 0.009686052 0.23684068 -0.016676396
0000b0 1e c1 0f be ad 69 5e 3e 87 32 7d bd 2c 75 c2 bc
       -0.14038512 0.2172 -0.061815765 -0.023737513
0000c0 db dd 86 3d e6 ad d6 3d 24 ae e7 bc b4 d8 38 bc
       0.06585284 0.10482387 -0.028281279 -0.011282135
0000d0 94 ac 2d 3e 75 ea c7 bb 79 97 95 bd 36 17 47 be
       0.16960365 -0.0061009475 -0.07304282 -0.19442448
0000e0 8f 22 1c 3e 8a 46 3f be 5e 35 c3 bd 2a e3 6c 3e
       0.15247558 -0.18679252 -0.09531663 0.23133531
0000f0 28 32 27 3e a2 1b 48 3d 17 0e 9b 3e 79 d5 89 3e
       0.16327727 0.048854478 0.30284187 0.2692068
000100 be be b3 bd 0b 3c 66 be 42 c5 dd 3d eb 6d 63 be
       -0.087766156 -0.22483842 0.108286396 -0.22209899
000110 0f 10 99 3d a4 dd a3 3a da 61 08 be aa b4 96 bd
       0.07473766 0.0012501967 -0.13318577 -0.07358678
000120 7e 61 a3 3c 63 e5 40 bd 09 e6 02 3e a6 51 eb bb
       0.019943949 -0.04709376 0.12783064 -0.007181364
000130 fd de 9f 3d 85 de 11 3e 9f 99 89 bb f5 2a 4a 3c
       0.078062035 0.1424504 -0.0041992213 0.012339343
000140 3f df 26 3e 51 63 a5 bc 76 56 04 be d3 b1 dc bd
       0.16296099 -0.02018896 -0.12923607 -0.10776105
000150 e2 3f df 3d 50 d8 f0 3d 2c 72 4f be 2b a5 d2 bc
       0.109008566 0.11760008 -0.20258397 -0.025713524
000160 21 e2 f6 3d cd 89 dd bd 9e 61 2b 3e 23 e9 a7 3d
       0.120548494 -0.10817299 0.16736457 0.08198764
000170 c9 5b 24 be 98 68 4d bd da b6 10 be e8 b3 f4 bd
       -0.16050638 -0.050148576 -0.14132252 -0.11948377
000180 56 27 fa bd 2a b1 19 be fd 66 17 be 8b 90 e3 bd
       -0.12214534 -0.15008989 -0.1478538 -0.11111554
000190 88 2b cc 3c e0 7a 32 3c 00 ff 20 bc 2c b2 24 be
       0.024923101 0.0108935535 -0.009826422 -0.16083592
0001a0 3f ad ff bd b0 59 b8 3c 88 90 f9 3d 5c 5f 0a be
       -0.12484216 0.022503704 0.1218577 -0.13512939
0001b0 38 a3 9c 3c 3c 06 9f 3d 45 3b 02 be ee fb 17 be
       0.019120798 0.07764861 -0.12717922 -0.14842197
0001c0 9e 54 8a 3d bc 65 89 3d 90 4a 33 3e 54 7d d1 3d
       0.06754421 0.067088574 0.17508912 0.102289826
0001d0 24 69 c3 bd 34 20 78 bd 78 a9 c6 3d 5b 50 18 be
       -0.09541538 -0.060577586 0.09700292 -0.14874403
0001e0 65 97 0a be ac f7 26 3e 94 f1 1e bd c0 38 56 3c
       -0.13534315 0.16305417 -0.038804606 0.013075054
0001f0 4e e1 fa bd 13 e6 ae 3d 44 ab c4 3c 94 64 55 bf
       -0.12250005 0.08539977 0.024007447 -0.83356595
000200 f0 55 36 3e 6a 8f 32 bd ea 8a 95 be 25 2a 32 3d
       0.1780622 -0.0435938 -0.29207546 0.043497223
000210 0d d6 b3 bc f7 71 9c 3d b1 d5 86 3d 52 fc 08 bd
       -0.021952653 0.076389246 0.06583727 -0.033443756
000220 e7 85 8e bd 7f 22 9e 3d ec 6b e4 3d d4 b8 14 be
       -0.069591336 0.07721423 0.11153397 -0.14523631
000230 86 60 03 be b8 32 4b 3e a4 cf 3e 3e 6a 1c a0 3d
       -0.1282979 0.19843566 0.18633896 0.078179196
000240 0c 94 3d 3e 04 4b 19 be 60 c1 0f 3e 3e 09 f1 bd
       0.18513507 -0.14970022 0.1403861 -0.11769341
000250 eb 08 72 be c2 91 87 bc 56 1d c0 3d 4d 75 a7 3d
       -0.23636214 -0.016548995 0.093805954 0.0817667
000260 f3 d5 61 3b d8 8f 6f 3d 45 98 90 bd 8f dd 26 be
       0.00344598 0.05848679 -0.07060293 -0.16295455
000270 5b 22 8d 3d 10 fa 7b 3b c7 93 5e bf 07 18 84 3d
       0.068913184 0.003844861 -0.8694424 0.06449895
000280 e2 a4 21 bc ba 76 a0 be 2c e4 9e bd 3f ce ad 3e
       -0.009865971 -0.3134058 -0.07758364 0.33946416
000290 20 88 af 3c b2 38 ae 3d 71 05 02 3e 27 e7 0a 3e
       0.021427214 0.085069075 0.12697388 0.1356474
0002a0 5e 07 61 3b b6 e4 a8 3d 04 89 2d be ba 01 c7 bd
       0.0034336667 0.08246748 -0.16946799 -0.09717126
0002b0 b1 05 df 3c be 9b eb 3d a6 5c 0f be 1b 5b 36 bd
       0.027224394 0.11504315 -0.14000186 -0.04452048
0002c0 cf c2 9a bd 67 97 f2 3c fc ed 0d 3e a7 d2 cc 3d
       -0.07556688 0.02961321 0.13860315 0.10001116
0002d0 37 82 3a 3e 7d 33 2f be 2e 20 19 3e 81 c4 21 bd
       0.18213736 -0.17109485 0.14953682 -0.03949404
0002e0 17 8f f4 bc 42 2e ba bd 07 b5 b3 3c 0b fc f1 be
       -0.029853387 -0.09090854 0.021936907 -0.47262606
0002f0 8c 96 66 3c 74 bf 40 bd 8d 47 a0 3d bb 83 ce 3c
       0.014073979 -0.047057584 0.07826147 0.025209298
000300 16 d1 bb bc 2e 7d 56 be bb 6f e3 bd 50 5d da 3d
       -0.022926848 -0.2094619 -0.11105295 0.10662329
000310 82 01 67 3d fb 52 c4 3c 04 cb 82 bb 68 0f eb bd
       0.056397922 0.02396535 -0.0039914865 -0.11477548
000320 01 1c f8 ba 49 2e 82 bd 7b bd 27 bd 6a 98 c9 bb
       -0.0018929244 -0.063564844 -0.040952187 -0.0061522024
000330 54 19 be bd c3 52 66 bd 60 f3 95 bd a2 ec 06 be
       -0.09282175 -0.05623127 -0.07321811 -0.13176206
000340 0e 0d f8 bd 45 73 cb 3d 74 71 9c 3d fd 47 16 be
       -0.12111865 0.09934095 0.07638827 -0.14675899
000350 71 d3 37 bd 65 67 98 3d 85 c2 5b bd f5 43 35 bd
       -0.04487938 0.07441596 -0.053652305 -0.044254262
000360 25 b1 1c 3e 74 48 48 bd a8 86 2a 3c e5 02 fe bc
       0.1530195 -0.04889722 0.010408081 -0.03100724
000370 85 b3 16 bf f5 f3 09 be 5b 97 89 bd 24 04 13 3e
       -0.58867675 -0.13471968 -0.06718322 0.14357048
000380 8d 3e 5c 3e c4 f2 12 bd 2e da 96 ba 55 87 87 be
       0.21508236 -0.03587605 -0.0011509114 -0.26470438
000390 51 04 5b 3e cf 63 3e bd 93 1c 2f be 36 91 70 bd
       0.21388365 -0.046481904 -0.17100744 -0.058732234
0003a0 98 92 5b 3e ed 17 4f bd dc ee 43 bc 05 29 b6 bd
       0.2144264 -0.050559927 -0.011958804 -0.088945426
0003b0 6e b0 fc 3d 0d a0 93 3d 38 d2 39 bc 31 12 68 be
       0.12338339 0.07208262 -0.011341624 -0.2266319
0003c0 ab b7 0b bd 0e 92 80 bc a7 43 ac 3d 38 09 3e be
       -0.034110706 -0.015694644 0.08411341 -0.18558204
0003d0 29 89 2a 3d db 0f 65 bd ad 7c 75 3e 6c 02 19 be
       0.041634712 -0.055923324 0.23973341 -0.1494233
0003e0 06 a0 09 3f 44 6d 37 3d e9 75 21 bb 4e 74 02 3f
       0.537598 0.04478194 -0.002463693 0.50958717
0003f0 03 3b 3b 3d 02 34 df be 6f d1 40 be 3d ed 4f bd
       0.045710575 -0.43594366 -0.18829893 -0.050763357

fc1.bias f4 [128]
000000 68 af 1c 3e b1 dd 4c 3e 82 20 15 bd a0 bf 91 bb
       0.15301287 0.20006444 -0.036407955 -0.0044478923
000010 99 e7 53 3e 2e 76 23 3d 32 92 54 bd 78 fa 9d bd
       0.20693816 0.039907627 -0.051897235 -0.07713789
000020 fc b3 63 3e 0e ad 2a be 13 07 e3 bd 9a b7 52 3d
       0.22236627 -0.16667578 -0.11085334 0.051444627
000030 21 8d fd 3d 0b bf 20 be 51 37 87 3d ff b1 41 bd
       0.12380434 -0.15697877 0.06602348 -0.04728889
000040 f2 2c ac bd ce 15 3e bd 5a 65 1e be 02 1c ac 3d
       -0.0840701 -0.046407513 -0.1546835 0.084037796
000050 a2 9d bb 3d 18 06 88 bc f7 ec 1c be 1b c0 8a 3d
       0.091609254 -0.016604468 -0.1532477 0.067749225
000060 ad 0c 68 3d 20 77 3e 3e 49 8f f2 bd 92 87 07 be
       0.056652714 0.1860013 -0.11843736 -0.1323531
000070 b2 80 48 bd 0e 23 98 3d e7 42 87 bd fd ed b4 3d
       -0.04895086 0.07428561 -0.066045575 0.08834455
000080 ef ad a2 3d e7 45 66 bb f0 3b af bd 6a 50 ed 3b
       0.079433315 -0.003513688 -0.08556354 0.007242252
000090 8d 29 bf bd 4e b0 0c be 06 98 9c bd 54 66 6e 3c
       -0.09334097 -0.1373913 -0.07646184 0.014550764
0000a0 a6 84 70 be 34 9f 44 be 82 dc 65 bd 69 d6 a4 bd
       -0.23488101 -0.19201356 -0.056118496 -0.08048708
0000b0 e5 3a dc bd f0 a1 ff 3d c8 96 b7 bd 48 3d de bd
       -0.10753421 0.12482059 -0.08964306 -0.10851532
0000c0 60 06 8a bd 2d c3 7a 3d 70 91 ca bc c9 85 de bd
       -0.06739497 0.06122129 -0.024727553 -0.10865361
0000d0 77 59 0b 3e 36 fd fd bd 4f a8 09 bd 85 b6 37 be
       0.13608347 -0.12401812 -0.033607777 -0.1794072
0000e0 96 ae 16 bd 0e 00 85 be 7b 15 ce 3d 61 a3 6e 3d
       -0.036787592 -0.25976604 0.10062691 0.05826128
0000f0 a2 50 bf 3c ac 9a c9 3c e1 84 ad 3d a0 cf ac 3c
       0.023353878 0.024609886 0.0847261 0.021095097
000100 0e b5 32 3e b8 94 33 3e 6d 93 81 bd a9 8a 36 3e
       0.1745188 0.175372 -0.06326947 0.17826332
000110 6a fb cc bd 19 82 52 be 23 ac 6e 3d 6d 2d cf 3d
       -0.10008891 -0.20557441 0.05826963 0.10116086
000120 f7 97 b2 bc 47 2d ee bc 22 73 81 3c af bb ff 3d
       -0.021800978 -0.029074324 0.01580197 0.1248697
000130 19 2c c7 bd 6c 83 09 3e 62 cc b4 bd 4e 2d 65 bd
       -0.09725208 0.1342904 -0.088280454 -0.05595141
000140 2c 3f 05 3e 4b 98 fc 3d 1c f3 51 bd 43 d7 ed 3c
       0.1301238 0.12333735 -0.051257238 0.029033309
000150 c9 72 ed bc a2 9d f9 3d ae 39 17 3e 25 c1 6a be
       -0.028985398 0.12188269 0.14768097 -0.22925241
000160 af 98 99 3d 5a 66 2c be 8e 65 56 be bc e4 7d be
       0.07499825 -0.16835919 -0.20937178 -0.24794286
000170 48 5e bd 3d 58 e6 b2 bd 9a 18 74 3c cd ea 7f bc
       0.09246498 -0.08735341 0.014898444 -0.015619946
000180 38 ab 20 3d a2 d4 2a 3e 63 a1 1f 3d 30 df 50 3d
       0.039225787 0.16682675 0.03897227 0.0509941
000190 a5 2e 1a be dd af 2d be d3 6a 46 3d c9 e3 97 3d
       -0.15056856 -0.16961618 0.04844172 0.074164934
0001a0 0d e4 e3 3d 9b d0 b1 bd cc 82 56 bc 91 d5 cc bd
       0.111274816 -0.086823665 -0.013092708 -0.10001672
0001b0 a6 e5 21 be c0 0f 4f 3e de 64 35 be 3d 0f 32 bc
       -0.1581026 0.20220852 -0.17714259 -0.010867891
0001c0 c7 69 f8 3d 72 2d f3 bd e8 24 04 3e 8f 17 54 bc
       0.121295504 -0.118739024 0.12904704 -0.01294507
0001d0 1a ac 0b 3e aa 58 d9 3c 91 22 df 3d 65 d2 2f 3c
       0.1363987 0.026531536 0.10895265 0.010731314
0001e0 79 3b 46 3e c7 4e 96 bc 4d 92 fa 3d 46 ec b2 38
       0.19358625 -0.01834811 0.12234936 8.531711e-05
0001f0 e4 18 f2 3d 7f 1d d8 bd 85 c2 1d bd 11 fc 84 bd
       0.11821154 -0.10552501 -0.038515586 -0.0649339

fc2.weight f4 [64, 128]
000000 bd c6 0e 3e 84 80 03 3e a6 f6 fb 3c 84 25 80 bd
       0.13943 0.12841994 0.03075726 -0.062571555
000010 07 50 fa 3d 6d 3a 88 3e 94 99 1f bd c8 62 50 3e
       0.12222295 0.26607075 -0.038964823 0.20350182
000020 16 0a 6c be 8d 8f 49 bc 23 d5 e1 3d 92 52 6e 3c
       -0.23050722 -0.012302292 0.11026981 0.0145460535
000030 30 d1 91 3c 76 b5 80 3d e9 4b b3 3d 89 b9 8f 3c
       0.017799944 0.06284611 0.08754713 0.017544525
000040 ee 28 ba bc 6d 90 96 3e 76 37 9a bd b3 37 0b bd
       -0.022724595 0.29407063 -0.075301096 -0.033988666
000050 3e 5c af 3d 4f 9b aa bb 3c 34 0f 3e d5 da 95 bd
       0.08562516 -0.0052065025 0.1398477 -0.073171295
000060 fa 6a 23 3d 82 c4 2b 3e 03 cd 46 3d 1b 93 4f bd
       0.039896943 0.1677418 0.04853536 -0.0506774
000070 ba 34 a3 3d 3f 85 b9 3d 81 19 ba 3b 9a 30 de 3d
       0.07969041 0.09058618 0.00567931 0.10849114
000080 e0 85 dc 3d b8 63 07 3d 4d 9e e5 3d dc 20 71 ba
       0.10767722 0.033054084 0.11211834 -0.0009198317
000090 58 76 2f 3d 6a c6 dc 3d be c0 f9 3c 2b 36 b0 3d
       0.04283747 0.10780032 0.030487414 0.08604082
0000a0 6c 62 98 bd 5f 1e e3 3a e8 af 4b 3d bb 14 b8 3d
       -0.074406475 0.0017327777 0.049728304 0.08988329
0000b0 42 53 ac 3c 91 d2 bb 3c a9 2a 53 3d 74 70 ec bd
       0.021035794 0.022927554 0.051554356 -0.11544886
0000c0 0d eb 2f bd 28 10 01 bd fe 52 a6 3d 4e 6f c5 3d
       -0.04294877 -0.03150955 0.08121298 0.0964037
0000d0 be 61 88 3c a6 28 b1 3d 2a a9 99 bd 57 ce 9b bc
       0.01664817 0.08650331 -0.075029686 -0.019019289
0000e0 26 82 49 bb ff 5b 8d bd 12 64 2a 3d ab f9 8c 3d
       -0.003074774 -0.069023125 0.04159934 0.06883558
0000f0 19 16 4a 3d 95 c0 e5 3c 82 d8 28 bd c1 2b f0 3c
       0.04933748 0.028045932 -0.041222103 0.029317738
000100 b5 69 3a 3e fe 9c 55 3e 8b 7f 55 3d a7 a9 b3 3c
       0.18204387 0.20860669 0.052123588 0.021931482
000110 86 7e 41 3e ff 0f 8d 3d 97 01 86 3d 86 56 81 3d
       0.18895921 0.06887817 0.06543272 0.06315331
000120 1c 13 b1 3d cc 28 94 3e e6 e2 0c bc ec 54 ac 3d
       0.08646223 0.28937376 -0.008599019 0.08414635
000130 a8 8c 44 3b 3f a0 a9 3c 5a f4 d7 3c d6 33 1d 3e
       0.0029991064 0.020706294 0.026361633 0.15351805
000140 aa 15 54 3e e7 94 be 3d 7a 97 21 3e cb 48 47 bd
       0.20711389 0.093057446 0.1578044 -0.048653405
000150 94 e8 8e 3d 1b e3 b4 3d 6f e9 ab 3c e2 ff 37 bd
       0.069779545 0.088323794 0.020985333 -0.044921763
000160 b7 3e 90 3d 18 17 9f 3d 3b 57 ca bd b2 b8 9a 3d
       0.07043212 0.07768077 -0.09879919 0.07554759
000170 2e e8 f6 bd 2a 20 86 bd 30 3d e0 3d 25 4d 8c 3c
       -0.120560035 -0.065491036 0.109491706 0.01712663
000180 ec 16 a6 bd 2c 88 98 3d ce da 12 bd 78 7d 50 3e
       -0.08109841 0.07447848 -0.0358532 0.20360363
000190 f1 7a ee 3c ce dd aa 3c fe 71 2b 3d 23 03 8e 3e
       0.029111357 0.020857718 0.04185676 0.27736768
0001a0 7a 9b e4 bc 7e 22 a2 3d a3 db 40 bd 80 f3 64 bd
       -0.027906168 0.07916735 -0.047084462 -0.055896282
0001b0 d8 fe 9d 3c 81 98 7c 3e 36 7c a0 3d db 6d ae bd
       0.019286558 0.2466755 0.07836191 -0.08517047
0001c0 92 6f 66 bc a0 7e 8d 3d f9 40 b5 bd ca 5e 4e 3e
       -0.014064686 0.069089174 -0.08850283 0.20153347
0001d0 66 bd 8c 3e 75 51 df 3c 1c 11 fd 3d 14 dd e8 3c
       0.2748825 0.027260521 0.12356779 0.02842573
0001e0 ba 24 69 3e 91 59 25 3d d7 41 b1 3d 2b 60 91 bc
       0.22767916 0.04036862 0.08655136 -0.017746052
0001f0 28 a0 74 3c 1a 57 2d 3d 90 49 8e bc 61 42 f9 bd
       0.014930762 0.042319395 -0.017369062 -0.12170864
000200 b2 d4 97 3d 63 e4 0c 3d d9 f2 33 bc de 34 37 bd
       0.07413615 0.034397494 -0.010983192 -0.044728152
000210 94 8f e1 3d c6 da 44 3e 95 fd 54 bc 47 19 e4 3d
       0.110137135 0.1922408 -0.012999912 0.11137634
000220 a3 2f 36 be 00 66 e2 bb b0 75 93 3d 67 0f 26 bc
       -0.1779161 -0.006909132 0.072001815 -0.010135508
000230 02 25 0c 3e 30 35 9a 3c 72 ad be 3d bc e3 85 3d
       0.13685992 0.01882419 0.09310426 0.065375775
000240 61 91 9c 3d 2d bf 85 3e a7 b0 a1 3d 33 20 9c bc
       0.07644916 0.26122418 0.07895022 -0.019058323
000250 39 23 ff 3d 0a b3 d5 3d 09 b7 d2 3d 49 92 56 bd
       0.1245789 0.104345396 0.102888174 -0.052385602
000260 fe a1 00 3a 4a 5c 92 3d 81 a9 a9 3d 52 07 87 3d
       0.0004906951 0.07146509 0.082842834 0.06593193
000270 f7 81 28 bd b0 bd c7 3d 52 c1 d0 3d 65 59 ab 3d
       -0.04113957 0.09752977 0.10193123 0.0836666
000280 d6 ac 0d 3e 27 29 52 bd 2a 66 42 3d 90 dd 05 bd
       0.13835463 -0.051308777 0.047460712 -0.032682
000290 41 fb 42 bd 43 a8 6f 3d ed 8c 9a bd b1 f5 04 bd
       -0.047602896 0.058510076 -0.07546411 -0.032460872
0002a0 fe cd 45 3d 75 c1 fa 3c 47 a0 3d 3b 16 10 6d 3d
       0.048292153 0.030609826 0.0028934644 0.05787667
0002b0 75 e3 ae 3d 3e 2b 03 3d 89 69 16 3e c6 88 a3 bd
       0.08539478 0.03202366 0.14688696 -0.07985072
0002c0 74 47 8c 3d 9c 0f 76 3d ee c1 a3 3d 5d fa 04 bd
       0.06849566 0.06007348 0.079959735 -0.032465328
0002d0 57 ee 1d 3d a4 6d 09 3d b4 d6 94 be c3 b5 9f bc
       0.038557377 0.033551827 -0.29070055 -0.01949585
0002e0 e7 7d 93 bd e9 10 95 bb 70 a8 d4 bd bf 6f 73 3d
       -0.07201748 -0.004549135 -0.103836894 0.05943274
0002f0 d3 fa 32 3d ea 62 b0 3d 24 4f a0 bd 26 b9 99 3d
       0.043696236 0.08612616 -0.07827595 0.075060174
000300 94 1a 87 3d ad c1 c4 3d 83 b0 e3 bc 2b 3b 88 3d
       0.06596866 0.09607253 -0.027794128 0.066519104
000310 f1 d3 a3 3d 23 25 ce 3c 1a 2e f0 3c 26 31 14 3c
       0.07999409 0.025164193 0.029318858 0.009044921
000320 13 7f 7f 3d bd 8b 50 3e ca ca 39 3a ce 20 ff 3d
       0.062377047 0.20365806 0.0007087408 0.12457429
000330 11 3d 2d 3e 02 78 64 3c 90 32 2e bc e0 03 9f 3d
       0.16917826 0.013944628 -0.010632172 0.07764411
000340 4d 2b 05 3d 4e 26 1e 3c 91 45 da 3d 43 be 32 3d
       0.032511998 0.009652687 0.106578 0.04363848
000350 9b f0 8c 3c 7f d9 af 3d bc 6b fb bd 1c d4 44 bd
       0.017204573 0.08586406 -0.12276408 -0.048053846
000360 33 9e 0b 3d 7e b0 6d bd 48 03 93 bd 7b 29 c2 bd
       0.034086417 -0.058029644 -0.0717836 -0.09480568
000370 9f ce ae bc ae b1 ec bc 5c 91 1c bc 13 f5 a6 3c
       -0.021338759 -0.028893318 -0.009556141 0.020380532
000380 6b c1 af 3d 58 91 2b 3e 2c 46 85 3d bd 6a bb 3d
       0.085818134 0.16754663 0.06507525 0.09151218
000390 f3 d0 90 3d e1 91 73 bd e7 7d 36 3d ae 44 5a 3e
       0.07071104 -0.059465293 0.044553664 0.21315262
0003a0 7b 61 71 bc 0b 4e 4b 3d 9b 71 e0 bc 01 07 1f bb
       -0.014732714 0.049634974 -0.027397921 -0.002426565
0003b0 84 ae 71 bd a5 1a 01 3e 2e 6e 76 bd e7 00 3f 3b
       -0.05900432 0.1260782 -0.06016367 0.0029144825
0003c0 07 b0 e9 3c 18 bd 03 be 90 f3 01 be 39 11 99 3e
       0.02852632 -0.12865102 -0.12690568 0.29895952
0003d0 2a 12 71 3e 77 c7 8b 3d 3f 89 38 bc ab 53 a5 bd
       0.23542085 0.06825154 -0.011263191 -0.08072599
0003e0 a9 92 ee 3d 7e 6a 69 bd 7f 06 99 3d 41 2d 0c be
       0.11649067 -0.056986324 0.07471942 -0.13689138
0003f0 f9 7c 76 3d be 47 d0 3c 1b 91 a2 bc 56 a5 0c be
       0.060177777 0.025424834 -0.019844582 -0.13734946

fc2.bias f4 [64]
000000 6c b5 eb bb 63 63 68 3d 61 b5 b4 3d 8f b0 d6 bd
       -0.007193258 0.056735408 0.08823658 -0.10482895
000010 83 81 04 3c 0d 42 3c 3d f4 6c 58 3d 4e df 85 3d
       0.008087519 0.04596143 0.05283828 0.065367326
000020 8f c5 6f bd 9e b5 b8 bd 62 fa e3 3b c8 d9 20 bd
       -0.058538016 -0.09019016 0.006957338 -0.039270192
000030 8f 81 b4 bd f3 f5 ce bb 77 9d ac 3d ea a2 85 3d
       -0.08813774 -0.0063159405 0.084284715 0.06525214
000040 9b 49 a2 3c be 66 d9 bc 80 8f 28 bd ed 12 bb 3b
       0.019810488 -0.02653825 -0.041152477 0.0057090432
000050 0a fe ac 3d 89 ed 80 bd 8a 09 39 bd a3 5e 92 bc
       0.084468916 -0.06295306 -0.045175113 -0.017867392
000060 7d 19 dd bc e4 03 84 bd b9 71 2c 3d fc c9 68 bc
       -0.026989693 -0.064460546 0.042100642 -0.014208313
000070 57 76 8c bd 6b ef 99 3d 35 fc b7 bd ca c4 85 bb
       -0.06858509 0.075163685 -0.089836515 -0.004082297
000080 42 9d e0 3c 72 b0 33 3d 95 6c ba bd 40 09 10 bd
       0.027418736 0.043869443 -0.09102742 -0.03516507
000090 8c 80 5f 3c 67 d5 18 bd f1 7a 6c bd 1d 15 01 be
       0.013641488 -0.03731289 -0.057734434 -0.1260571
0000a0 b6 82 b2 ba 32 86 5c bd 03 44 5e bc b4 4b 67 bc
       -0.0013619277 -0.053838916 -0.01356602 -0.01411717
0000b0 26 d8 ab bd a3 17 97 bd ef 46 73 bd 83 d1 85 bd
       -0.083908364 -0.07377555 -0.05939382 -0.06534102
0000c0 9e 30 a2 3d 0e 60 be bd 39 38 e5 3d d4 3d 8a bc
       0.07919429 -0.09295665 0.11192364 -0.016875185
0000d0 8d 61 89 bc d6 b0 03 be fb 26 82 3c aa 03 3d bc
       -0.016770149 -0.12860426 0.015887728 -0.011536518
0000e0 97 1f 8d 3d 96 63 98 3d 5a f9 44 bd 30 40 fa bd
       0.06890791 0.074408695 -0.048089363 -0.12219274
0000f0 d6 bc a3 bc a3 c7 6b bd 5b 6f 23 3c 9e 46 da bb
       -0.019987505 -0.057563435 0.00997528 -0.0066612503

fc3.weight f4 [1, 64]
000000 39 37 1a be 67 bb 7c bd c7 af a7 3e 92 c9 6d 3d
       -0.15060128 -0.06170216 0.32751295 0.05805356
000010 09 9b e4 bb 5c 76 1b be 59 7b 9a bd 32 81 07 3e
       -0.0069764894 -0.1518187 -0.07543058 0.13232878
000020 c1 5d 2c 3d 66 ce 12 3d 29 1d cf bd 6b 14 ac 3d
       0.0420816 0.03584137 -0.10112984 0.08402332
000030 90 5c ea 3c c8 1c 4b bd 35 56 fa 3d 54 7d 97 3e
       0.02860859 -0.049587995 0.12223474 0.29587805
000040 5e 24 a8 bd 9b 27 2b bd 0b 5b ac 3e 30 29 5c 3e
       -0.082100615 -0.041785818 0.3366321 0.21500087
000050 f3 a0 ea 3d bb 11 a3 bc 84 20 31 be bb 82 c2 bc
       0.1145648 -0.019905915 -0.1729756 -0.023743978
000060 d0 00 2b be 48 d2 92 bd 2c 0c 28 3c bd ca ae bb
       -0.16699529 -0.07169014 0.010256808 -0.005334227
000070 a4 70 84 3a e1 6d 32 bd 1e 8d aa 3c 58 21 73 bd
       0.001010437 -0.04356182 0.020819243 -0.05935797
000080 7d 5c d2 bd 9d 4c 6a 3d d5 bd 11 3d 82 08 20 3d
       -0.10271547 0.05720197 0.03558143 0.039070614
000090 ea 37 92 bd b1 eb 35 3c b0 23 f1 bd b8 cc 1c bc
       -0.07139571 0.0111035565 -0.11774385 -0.009570293
0000a0 9b c1 5a bd 0e 15 42 3c f9 e9 fb bd 10 3b 15 3d
       -0.053407293 0.01184584 -0.12300486 0.03643328
0000b0 ec cc 9a 3a 17 ae 91 3d ba 05 fa ba 26 8f de 3d
       0.0011810339 0.07113283 -0.0019075193 0.10867147
0000c0 db 04 1e bd ff b8 07 3c 42 5a 2e be 18 d9 03 bd
       -0.03857885 0.008283853 -0.17026618 -0.03218946
0000d0 a7 81 9b 3d 74 f0 4f be 5a b1 77 be 19 b1 19 3e
       0.075930886 -0.2030657 -0.24188748 0.15008964
0000e0 b2 7c 10 bd 69 2f 0e 3e 3f 40 83 3c 74 2f 02 be
       -0.03527517 0.13885273 0.016021846 -0.12713414
0000f0 37 b4 1e be 12 77 cc 3d 55 07 c1 bc 2c f2 80 be
       -0.15498434 0.09983648 -0.023563066 -0.25184762
