CS273A/Project/models/improved_nn_model.pth (torch, 203472 bytes, 25 tensors)

fc1.weight f4 [256, 12]
00000000: 9b76 573e 792b 1d3d 3d2f dc3d c40e 44bd
00000010: b70d 92be ec41 2cbe c938 4b3e e54d ab3b
00000020: 8de2 013e adfa ab3d 1fe1 ffbe be9e 41be
00000030: 2dd8 1a3d e991 633e 8ec2 0e3e c368 4abe
00000040: 94fd 07bf ed8a b2be 1049 383e 36a1 57bd
00000050: 7b33 ac3e 393f 263e 2ce8 5f3d 70c2 e7bd
00000060: abc2 0bbe 7297 2fba 70c6 373d f40a 04be
00000070: 1449 12bd 7c2b 343e c49b c3bd 27c3 07be
00000080: d44a 763c 21bb 69bd 260e e43e 7205 153e
00000090: 2aae f1bd 1416 2dbe cef1 583e 3179 013d
000000a0: c9d5 e1be f9b1 06bd 86e5 d8bb 8ef8 603e
000000b0: a6db 633e 643c de3c 3608 a0be 7bee 8ebe
000000c0: 8850 083d 33a8 8bbc a35a b6bd caa5 46be
000000d0: 22ea b3be b543 d23d 625a 53bd c238 cfbd
000000e0: 1e93 113e 441b 2d3e 0792 07bf 746c 683d
000000f0: b5ac 12be c0c3 aebe bfb3 8d3e 2b0a 473e
00000100: 1211 0a3e 8a42 2a3e ee28 01be fa56 87bd
00000110: faea 70ba ad3a 28be d620 80be b616 e93d
00000120: 933a 803e 4e86 b03d 030a 0d3e 3163 9e3e
00000130: debf 61be d56f 6e3e 7db5 003e 29e8 c1bd
00000140: b166 b03e a298 a3be cefc 65be ce37 b23c
00000150: e587 39be 51d3 d1be c4d6 87be cc3a 6f3e
00000160: 76e1 783d 5759 193e 4ace a6bd 6058 fcbd
00000170: bf73 463d ebc8 003e 310a adbe c24a 48bd
00000180: 4813 50bc c197 d1bd f854 103e cea7 14be
00000190: 9b34 efbe ff0a b93e 6f1d adbe 7556 47be
000001a0: e220 9fbe a8c8 303e ed38 203e e2b7 a2bd
000001b0: 0bd9 21bf b6dc 1d3e 5495 a839 ab6f 57be
000001c0: 3f70 033e 2675 98bd f635 8c3d 14ed e7bd
000001d0: 3531 0f3e f88e 14be 4db4 713d d633 32bd
000001e0: 451f 68be 40d9 ecbd d360 b83e 8727 7abe
000001f0: 4636 18be 5253 d43a c111 833e 55da 303d
00000200: 9a0e 8cbe 7b04 39bd aa00 8f3e eb0b f83c
00000210: 9ab3 e5bc 41fe 0d3d ddb5 983d f355 eb3d
00000220: db66 73be fc77 48be 4b17 823e 95eb 0a3e
00000230: 0dd7 1e3e 4778 8b3d 7630 04bf 2417 4fbe
00000240: 588a 07be 3aa0 0e3e f5eb 883e 8d0f ee3e
00000250: 89f6 873b 7267 ac3d 86aa 08be e567 3dbd
00000260: 0410 c9bd a198 8ebe 9785 2abe 447c 393d
00000270: 323d 403e bb85 afbd 19f9 e03d 70f0 3fbe
00000280: 3f38 19bf b697 083d 82c0 d0be 1d3d c63b
00000290: 0860 1d3e c909 803d fb63 17bd 1561 8ebd
000002a0: 28b9 a2bd 00dc 1f3e 1cbd b2be 3d44 aa3e
000002b0: 8a91 963e 9fed 443e 6558 36bc 0fb8 c03c
000002c0: b88c 3fbe 2524 9e3d 4939 40be bedb 4f3e
000002d0: 5082 19be 7193 a53b c8c9 0b3e dbb6 34be
000002e0: da2d c4be 6cb2 10be 1870 ae3b e4be 113e
000002f0: e151 7dbc be62 b83d cc6a 12bf e2c1 84be
00000300: 9d41 0a3e dcb0 e1bd dcfc c7be 322c 7d3e
00000310: 168e f6bd 5e48 00be e251 91be 0940 29be
00000320: 81ad 033d 4173 1d3e b196 73bc e6db 873e
00000330: 718d 993e 201c c43e 8d72 f5bc c8a7 9cbb
00000340: 8e4d 57be 9fd2 7bbe 1861 e53d 879c 143e
00000350: 8962 e1bd e5f8 f2bd c891 903e 629f 0fbe
00000360: aaa5 b53c 00df c7bd 8b10 453d 3503 1a3e
00000370: cdaf 42be 86b0 a33d d7d2 1fbf e53a aabc
00000380: 5982 103e cd31 d83d 4dbf 703e 0be5 a43e
00000390: 5f6b 49be a551 5c3d 3b05 abbe bc3b 2cbd
000003a0: 3aa3 17be da6e 22be 8c97 46be dab4 e4bd
000003b0: 3288 9cba 193b 6abe 99e1 7dbe 235d 80bd
000003c0: de3d cebb c972 28be ec82 a53e 29a9 673e
000003d0: f30a b13e 7cb0 843d be28 393c 7261 37be
000003e0: a012 32be 297f 243e 79fb 133d 8314 e9bd
000003f0: aad6 1cbe 725f 9c3e 3dd4 00be 0665 29be
0.21041338 0.038371537 0.107511975 -0.047865644 -0.2852609 -0.16822022 0.1984588 0.0052277916
0.12684079 0.08397422 -0.4997644 -0.18908212 0.037803818 0.22223629 0.13941404 -0.19766526
-0.53121305 -0.34871617 0.17996621 -0.052643977 0.33633026 0.16235055 0.054664776 -0.11316383
-0.13648479 -0.00066982873 0.04486698 -0.12894803 -0.035714224 0.17594713 -0.09551194 -0.13258038
0.015032489 -0.057063226 0.44542044 0.14552858 -0.11800797 -0.16902953 0.21185991 0.031609718
-0.44108418 -0.03288457 -0.006619158 0.21969816 0.22251758 0.027128406 -0.31256264 -0.2791632
0.033279926 -0.017047977 -0.08904006 -0.19399181 -0.35139567 0.1026682 -0.051599868 -0.101182476
0.14216277 0.16904932 -0.52957195 0.056744054 -0.14323695 -0.3413372 0.27676198 0.19437473
0.13483074 0.16626945 -0.1261327 -0.06608386 -0.00091902877 -0.16428633 -0.25025052 0.11381285
0.2504469 0.086193666 0.1377335 0.30935052 -0.22045848 0.23284848 0.12569232 -0.09468109
0.34453347 -0.31952387 -0.22459719 0.021755125 -0.18118246 -0.40981534 -0.2653104 0.23362273
0.06076189 0.14975487 -0.08144815 -0.12321544 0.048450228 0.12576644 -0.33796838 -0.04889942
-0.0126999095 -0.10234023 0.14094913 -0.14517137 -0.46719822 0.36141202 -0.3381152 -0.19466574
-0.31079775 0.17264044 0.15646715 -0.07945229 -0.63221806 0.15416226 0.00032154715 -0.21038692
0.12835787 -0.07444219 0.0684623 -0.11324516 0.13983615 -0.14507663 0.05900984 -0.043506466
-0.22668178 -0.11564875 0.3601137 -0.24429141 -0.14864454 0.0016199148 0.25599483 0.043176968
-0.2735489 -0.04517029 0.27930194 0.03027912 -0.028039742 0.034666304 0.07456563 0.11491003
-0.23769705 -0.1957702 0.25408396 0.1356643 0.15511723 0.068100505 -0.51636446 -0.20223671
-0.13236368 0.13928309 0.2674252 0.4649624 0.0041492623 0.08418168 -0.133463 -0.04624166
-0.09817508 -0.27850822 -0.16652523 0.045284525 0.18773344 -0.08570429 0.109850116 -0.18744063
-0.5985145 0.033347808 -0.40771872 0.0060497657 0.15368664 0.06251866 -0.036960583 -0.06952111
-0.07945472 0.15611267 -0.34909904 0.33255187 0.29407912 0.1923127 -0.011129473 0.023525266
-0.18706024 0.07721738 -0.18771853 0.20298669 -0.14991117 0.005052977 0.13651192 -0.17647879
-0.38316232 -0.14130563 0.005323421 0.14232975 -0.015461416 0.090032086 -0.5719421 -0.2592917
0.13501592 -0.110200614 -0.39060104 0.2472389 -0.120388195 -0.12527606 -0.28382784 -0.16528334
0.032147888 0.15375997 -0.014867471 0.26534957 0.29990724 0.38302708 -0.029961849 -0.0047807433
-0.21025679 -0.24592064 0.1120016 0.14512835 -0.11005122 -0.11863879 0.28236222 -0.14025643
0.022173721 -0.09759331 0.04811148 0.15040286 -0.19012375 0.079926535 -0.6243109 -0.020780036
0.14112224 0.10556374 0.23510475 0.32205996 -0.19669865 0.0537888 -0.33402428 -0.042049155
-0.1480836 -0.15862599 -0.19393748 -0.11167307 -0.0011942445 -0.22874106 -0.2479309 -0.062677644
-0.0062939962 -0.16450037 0.32326448 0.22623123 0.34578666 0.06478974 0.011301218 -0.17908266
-0.17389917 0.16064133 0.036128495 -0.113808654 -0.15316263 0.3054157 -0.12580962 -0.16542444

fc1.bias f4 [256]
00000000: 1b75 523e 4243 efbd 67ee 0f3e 131d 62be
00000010: c2ac d8bc 4b74 55be 49cd c03c 6c6d 6abd
00000020: 6eae 893e e5d6 1f3e ff87 ea3d 3ac2 313e
00000030: 7862 e83d 2ee1 86be 1eb4 69be 5dde 09bc
00000040: 7fbf b2bb 1ba9 d33b 30a6 c33d bedd 333d
00000050: 6719 4cbe dec0 713e 7a5c 63be dfff 063e
00000060: d41d c3bd 79cc 4a3d fa07 433d 9f71 6c3e
00000070: 348b 92be 51ec 6bbe 1aaf 88be 1781 863e
00000080: f094 45be 17d8 c5bd 8467 4e3d d9d6 e03c
00000090: 1539 f73c 32fd 5abe c775 16be 8b0d 0fbc
000000a0: 8f7f 8ebe e501 c73d 30db b23d eec2 84be
000000b0: cac2 9c3c 4ba1 5cbe 5a96 ebbc bbeb d3bd
000000c0: 8abe 433e 7034 debd f0a4 933d 2d57 153e
000000d0: 86af 85be ce2a 603e 7f89 53bc 592b 8f3e
000000e0: a847 e23d ada1 b43d 6265 31be 7ac8 17bd
000000f0: 995f 093d 67c4 d63d 45ed debd 1cf8 81be
00000100: 736c 953e af4b 613e 6b47 1abe c7f9 533d
00000110: 20cb 8dbd 24c4 84bc 9687 353e 8cbd edbc
00000120: ec46 57bd c889 873e dd18 1dbe 1257 aebd
00000130: 483b 743e a8ee 0c3d cd9c 833d 7eb2 703e
00000140: db1e 0d3d 82aa 67be da0b 55bd d960 3bbd
00000150: 9907 8bbe 011c 113e a770 3c3b dc01 8b3e
00000160: 6aab 5fbe 651b 5c3e 2692 693d 72ed ce3d
00000170: 0846 1a3e 951c e4bd 6947 bd3d ac7b fcbd
00000180: 94f2 7cbd bc05 87be 2c6d fbbd 1364 0b3e
00000190: 186e 83be c824 4d3d d0ec aabd a41d cb3c
000001a0: 38c1 6dbd 6528 673e e7e5 633e 2095 2c3e
000001b0: 79e2 633d ac58 8c3e ec98 5cbe ed7f 1f3e
000001c0: 0ffd a9bd ccbc 27bd 08ca 89be fc12 b63d
000001d0: 460a 5fbe 5cfd b03d 124b debc 53c4 033d
000001e0: 053f 08bb d223 083e ea79 f0bb 82fd 933e
000001f0: c9cf 0f3e 2aab 98bd 8934 153e 55ce 8d3e
00000200: e9a0 1c3e 49f1 69be d5f7 29be 5f42 e93d
00000210: 60fc c23d a0cc 813e bc06 83be b2d9 8bbe
00000220: faa5 d4bd 7145 8bbe 479f 8abe 4abd 51be
00000230: 2ef1 88be a7ae 7bbe 5a26 663d 2eab 82bd
00000240: afc2 8b3e 33d1 313c f6dd 1dbe db51 063d
00000250: b09a 6ebe 01a7 b83d c19c 0cbd 8767 b93d
00000260: 24d2 dc3d 202f 6bbc 51ef 47bd 6177 edbd
00000270: e913 863e 8b2a eabd 082a 16be 07ea e9bd
00000280: f2aa 13bd 6f81 73be 417f 593e e582 1ebe
00000290: e98e 573e 9375 a8bc 4668 41be 2462 2ebb
000002a0: d98a 01bd 76da 38bd e5ac fabd 73ff 903e
000002b0: 6523 83be 1a4c 41bd 3bee 723e 6ae4 19bd
000002c0: 9909 1b3e c96e 4dbd d743 ed3d 46bf 783e
000002d0: b4ca 053e 6cc8 89be cb27 1fbe 6518 28bd
000002e0: a791 71be 93a6 56be ddbb d3bd 4817 8d3d
000002f0: 78ee c2bd 1525 1bbe 20c2 00be 7469 65be
00000300: 94be 2bbe 2c5f eabd 5e64 923e 0ce0 043c
00000310: c6d2 05be dc16 293e 9609 4abe abc0 42be
00000320: 18d2 07be d103 243e 8eb5 2a3e 6f4e 50bc
00000330: 0ce6 71be fe9c 4fbe a901 97bd 9467 703d
00000340: 3662 79be 261e 63bd 45a7 833e 5e87 a83d
00000350: 0085 00be 4f1f d63c be26 d2bd 1ae0 583d
00000360: a840 843e badf f73d a5b6 a6bb e496 0ebe
00000370: f325 133e 45bb 78be 6260 eb3d 3ea0 57be
00000380: 079a 0c3d 1588 fb3c b1eb a0bd 38f2 463e
00000390: 266c b2bd 0f03 973e 3777 1bbe 9828 1f3c
000003a0: 84ea 343e 1d02 03be e379 393d 5665 cbbd
000003b0: 83ea 45bd fb62 c2bd 8842 343e cd65 41be
000003c0: 017a 903d a259 10be 7d38 acbd 2306 873e
000003d0: a813 79be e9c4 3dbe d0a9 95bd f2fb ad3c
000003e0: 78bb 8fbe a698 05be 27b7 563e 7ecd 1f3d
000003f0: b26b 283e 0680 c63d 6c1b 13be 9552 f03b
0.20552485 -0.1168275 0.14055787 -0.22081403 -0.026449565 -0.20845143 0.023535388 -0.05723326
0.26890892 0.1560932 0.114517204 0.17359248 0.113469064 -0.26343673 -0.22822616 -0.008414832
-0.005454957 0.006459368 0.09553182 0.04391264 -0.19931565 0.23608729 -0.22203246 0.13183545
-0.09527174 0.049511407 0.04761503 0.23090218 -0.2862183 -0.23039366 -0.26696092 0.26270363
-0.19295096 -0.096603565 0.05039169 0.027446197 0.030178586 -0.21385649 -0.14693366 -0.008731256
-0.27831694 0.09717158 0.08733213 -0.2592997 0.019135851 -0.21545903 -0.028758217 -0.103476964
0.19115654 -0.108498454 0.07209194 0.14584036 -0.26110476 0.21891329 -0.0129112 0.2796276
0.110488236 0.088199 -0.1732383 -0.037056424 0.033538435 0.104866795 -0.10885099 -0.25384605
0.29184303 0.22001527 -0.15066306 0.051751878 -0.06923509 -0.016206808 0.17727503 -0.029021047
-0.05255787 0.26472306 -0.15341516 -0.08512701 0.23850739 0.034407288 0.06426392 0.2350559
0.034453254 -0.22623637 -0.052013256 -0.045746658 -0.27154234 0.14170839 0.002875367 0.27149856
-0.21842733 0.21494825 0.057024144 0.10103883 0.15065777 -0.11138264 0.09242136 -0.12328276
-0.061754778 -0.26371562 -0.12276682 0.13612394 -0.25669932 0.050083905 -0.0834595 0.024794407
-0.058045596 0.22574003 0.2225567 0.16853762 0.055635903 0.274114 -0.2154271 0.15576144
-0.0830022 -0.040951535 -0.2691195 0.0889034 -0.21781263 0.086420745 -0.027135406 0.03216965
-0.0020789516 0.13294914 -0.007338752 0.2890435 0.14044107 -0.07454522 0.14570822 0.2769648
0.15295757 -0.22845949 -0.16598447 0.113896124 0.09520793 0.2535143 -0.25591075 -0.27314526
-0.1038322 -0.27201417 -0.27074644 -0.20482364 -0.26746505 -0.24578343 0.05618892 -0.06380306
0.2729697 0.0108531 -0.15416703 0.032792907 -0.23301196 0.090162285 -0.03432918 0.090529494
0.10782269 -0.014354497 -0.048812214 -0.11595035 0.26187065 -0.11433896 -0.14664471 -0.1142159
-0.036051698 -0.23779844 0.2123995 -0.1547962 0.2105061 -0.020563876 -0.18887433 -0.002660879
-0.031626556 -0.045130216 -0.12240008 0.28319892 -0.2561294 -0.047191717 0.2372369 -0.03757135
0.1514038 -0.05015448 0.11585205 0.24291715 0.13065606 -0.26910722 -0.15542524 -0.04103889
-0.23590718 -0.2096198 -0.103385665 0.06889206 -0.095181406 -0.15150864 -0.12574053 -0.22403508
-0.16771919 -0.11443934 0.285922 0.008110058 -0.13068685 0.16512626 -0.19730219 -0.1901881
-0.13263738 0.16017081 0.1667082 -0.0127140125 -0.23622912 -0.20274732 -0.073733635 0.05869253
-0.24353871 -0.055448674 0.25713554 0.08228944 -0.12550735 0.026137976 -0.10261296 0.052948095
0.2583058 0.12103219 -0.005087691 -0.13924748 0.14369945 -0.24290188 0.11492993 -0.21057221
0.03432658 0.030704537 -0.078574546 0.19428337 -0.08712034 0.2949452 -0.15182196 0.009714268
0.17667586 -0.12793775 0.045282256 -0.09931438 -0.04831935 -0.09491535 0.17603505 -0.1888649
0.070545204 -0.14096692 -0.08409212 0.2637187 -0.24323905 -0.18532147 -0.0730778 0.021238301
-0.28072715 -0.13046512 0.20968305 0.039014332 0.16447333 0.09692387 -0.1436593 0.0073340633

bn1.weight f4 [256]
00000000: f7a3 843f 8499 663f 10e2 793f 81ee 6b3f
00000010: b656 6f3f 11e9 5e3f 398f 663f d0ea 8b3f
00000020: 464f 813f 2fb4 8f3f ad6c 713f 47c4 9c3f
00000030: f4bd 933f 1adc 7d3f 3e59 813f f87a 8f3f
00000040: 6ce9 3a3f 6b1a 903f 8ee3 793f 39c6 883f
00000050: 4e0d 363f 9cdc 833f 8814 5b3f c075 853f
00000060: c54f 6f3f 2a4a 703f efaa 643f fa24 813f
00000070: 33d5 5b3f 8a81 7d3f 5624 813f 97c3 803f
00000080: 53c5 693f ed22 823f 1b0b 843f b12a 893f
00000090: 0122 843f 4887 583f 1f3f 7e3f 0b42 8a3f
000000a0: 0569 5c3f 7933 813f 7e34 453f 32dd 653f
000000b0: d016 843f c4e8 8c3f 4528 743f aa86 5e3f
000000c0: 6504 823f de1b 563f 4495 643f f9e8 713f
000000d0: 365b 6c3f ada4 8b3f de9c 9d3f ddd3 8a3f
000000e0: 4144 923f 3ebc 733f 88c6 8e3f f851 5e3f
000000f0: ea75 693f 95f8 603f bd4e 7f3f 8dea 863f
00000100: 5d5a 483f 5cf6 8e3f ade9 753f 1048 8c3f
00000110: 98ed 7a3f 8522 8e3f c18d 5c3f 7c89 893f
00000120: a1bd 563f cdb1 713f e300 853f ba8d 843f
00000130: 3512 9e3f e2ee 693f 035f 793f 6124 633f
00000140: 96ea 763f 3409 873f 5670 803f 6ca6 823f
00000150: bc5f 673f 28ad 8a3f 14dc 8e3f fa6f 8f3f
00000160: c2eb 843f 344e 893f 37e2 863f 0a53 5f3f
00000170: 1ed8 6f3f eca4 523f 47bb 773f 7e9c 603f
00000180: a01f 743f 168e 533f f69a 7f3f c325 7e3f
00000190: ef09 6e3f 9767 813f fb76 6d3f 63e5 813f
000001a0: bad0 9c3f 403c 8b3f 148b 753f 6cd4 7d3f
000001b0: 159b 573f a438 733f 894c 593f 5763 813f
000001c0: e88d 663f 9274 7e3f 2027 733f 52ce 873f
000001d0: 61c9 883f a67a 7f3f b245 873f 844d 8a3f
000001e0: e56c 8b3f 821b 7d3f db4e 843f ce8a 7f3f
000001f0: b9ed 673f f399 733f f63c 5a3f 5f26 483f
00000200: 73fa 7c3f 74bf 8e3f 6a42 953f bfdf 683f
00000210: 9c3c 873f d2f3 893f bdba 893f a82e 653f
00000220: 4a12 793f ff9f 763f 6ac3 8e3f 1ba2 813f
00000230: 6647 853f fd07 733f c572 7e3f 70e4 773f
00000240: a6b5 7e3f 2379 663f 7f9a 803f fb46 6a3f
00000250: b1cd 843f dcd0 553f b78d 803f 6871 433f
00000260: 4a0e 683f 4cdb 663f da78 723f 8bfe 843f
00000270: 0546 7a3f 2926 8f3f e36c 7a3f 877c 7d3f
00000280: 58c2 463f 8713 983f 0d81 763f 633a 813f
00000290: de6e 8a3f 3dba 5a3f a9a0 613f d934 743f
000002a0: 6d34 6f3f 2032 833f 16cd 663f c015 873f
000002b0: dab0 6a3f 9060 843f a467 603f a191 833f
000002c0: 6e84 823f 5eea 713f b819 823f ba54 6d3f
000002d0: 4c82 713f f3d9 753f e389 5c3f 0724 693f
000002e0: febb 6c3f 28c7 873f 3d76 803f b560 943f
000002f0: 78af 463f 09e1 693f 821b 6b3f c5df 8e3f
00000300: e313 833f ddb6 883f 58cf 6d3f d3ac 643f
00000310: 38d0 803f be5b 5d3f b06a 6a3f 1419 8b3f
00000320: 700f 453f 914c 8b3f 7829 763f eee3 6c3f
00000330: 85c3 773f e564 733f 2032 663f dde6 613f
00000340: ecd6 873f b2fa 7f3f 80a0 863f 9280 7f3f
00000350: f0e7 783f 7e70 8c3f 5fd9 633f 8a06 853f
00000360: f336 873f 05ee 573f 5573 833f deea 843f
00000370: e285 803f 6944 683f 0cbc 473f 0291 893f
00000380: dcb3 893f e789 7a3f 9abd 5b3f cdec 653f
00000390: 0df0 553f 2178 863f e6d9 7b3f 610f 833f
000003a0: ef1a 933f b114 713f f518 893f 996a 893f
000003b0: 61f6 803f 89e1 843f 8682 8d3f 2d9f 893f
000003c0: f9ce 613f a466 6e3f f2d6 993f bfeb 853f
000003d0: 5a2b 8b3f e92a 843f 4f46 793f 2b14 8b3f
000003e0: b536 623f 8a35 5e3f 58d4 4b3f 1e8c 7b3f
000003f0: 2f11 803f 9d4f 7f3f 73d4 853f 1bea 5b3f
1.0362538 0.90077996 0.9761057 0.92160803 0.93491685 0.8707438 0.9006229 1.0931034
1.0102317 1.1226863 0.9430645 1.2247399 1.1542344 0.99163973 1.010536 1.1209402
0.73012424 1.1258062 0.97612846 1.0685493 0.7111405 1.03017 0.85578203 1.042656
0.93481094 0.93863165 0.89323324 1.0089409 0.8587219 0.99025786 1.0089214 1.0059689
0.9131672 1.0166909 1.0315889 1.0716153 1.0322877 0.8458142 0.99315065 1.0801405
0.8609775 1.0093833 0.7703322 0.8979064 1.0319462 1.1008534 0.95373946 0.8692423
1.0157591 0.8363627 0.8929026 0.94496113 0.92326677 1.090963 1.2313497 1.0845906
1.142708 0.9520911 1.1154337 0.86843824 0.9119555 0.87879306 0.9972952 1.0540329
0.78262883 1.1168933 0.96059686 1.0959492 0.9801879 1.1104285 0.861538 1.0745082
0.838831 0.9441193 1.0390896 1.0355752 1.2349306 0.9138013 0.974106 0.88727385
0.964517 1.0549684 1.0034282 1.0207038 0.90380454 1.0834093 1.1160913 1.1206048
1.0384448 1.0726991 1.0537785 0.8723608 0.93689144 0.822829 0.9677014 0.8773879
0.95360756 0.8263868 0.99845827 0.9927637 0.9298391 1.0109738 0.92759675 1.0148128
1.2251198 1.0877762 0.9591534 0.99152255 0.8422101 0.950083 0.8488241 1.0108441
0.9006028 0.9939662 0.94981575 1.0609839 1.0686456 0.9979652 1.0568144 1.0804906
1.0892607 0.988701 1.0336565 0.99821174 0.9059711 0.9515678 0.8524927 0.7818355
0.98819655 1.1152177 1.1660893 0.9096641 1.0565372 1.0777533 1.0760113 0.89524317
0.9729353 0.96337885 1.1153386 1.0127596 1.0412414 0.94934064 0.99393874 0.9683294
0.99495924 0.9002859 1.0047148 0.9151456 1.0375272 0.8352182 1.0043248 0.7634492
0.90646803 0.9017837 0.94715655 1.039018 0.9776309 1.118352 0.978224 0.9901814
0.77640295 1.1880959 0.96290666 1.0095943 1.0815084 0.8544043 0.8813577 0.9539314
0.9343937 1.0249672 0.90156686 1.0553513 0.91676104 1.0341969 0.87658143 1.0278817
1.0196664 0.9449824 1.0164099 0.9270741 0.9433944 0.9603569 0.861479 0.910706
0.92474353 1.0607653 1.0036083 1.1592013 0.77611494 0.91359 0.9183885 1.1162039
1.0240444 1.0680805 0.92894506 0.8932621 1.0063543 0.8646811 0.9156904 1.0867028
0.7697668 1.0882741 0.96157026 0.92535293 0.96782714 0.9507583 0.89920235 0.88242894
1.0612464 0.99991906 1.0517731 0.9980556 0.9722891 1.097183 0.89003557 1.039262
1.0563644 0.84347564 1.0269572 1.0384176 1.0040858 0.90729386 0.7802131 1.0747378
1.0758014 0.9786667 0.85836184 0.89814454 0.83569413 1.050541 0.9837936 1.0239068
1.1492594 0.941722 1.0710741 1.0735656 1.0075189 1.0381328 1.1055458 1.0751702
0.8820644 0.9312537 1.2018721 1.0462569 1.0872605 1.0325595 0.9737291 1.086553
0.88364726 0.86800444 0.79620886 0.98260677 1.0005244 0.99730855 1.0455459 0.8590409

bn1.bias f4 [256]
00000000: 082b 51be e561 82be 9120 03be 1046 91be
00000010: 7625 e8bd 8280 eebe 8aff dcbd 35fd 2bbe
00000020: 5725 febd 1d42 10be 7399 a3be c951 6abe
00000030: 51bb 3bbd 2312 7dbe b724 acbd 7e6e d7bd
00000040: 6859 93be 48f9 0cbe c184 2abe 1d1f 873d
00000050: 4e83 49be 99b2 cdbe 268c 47be 5094 cebb
00000060: ec45 81be 02dc 09be 6dd2 75be 73e2 93be
00000070: da83 2fbe ff9e 88be 89d4 debd d300 5d3c
00000080: 6fef 493b 6c2f 0abd b39d 9ebd 5cdd d6ba
00000090: e181 ecbd ffeb f3bc f413 10be 4341 64be
000000a0: 2307 05bd 066f babd e195 a0be d8b8 ce3a
000000b0: ee00 f5bd 5a31 c9be 7fc6 09bd ac97 88bd
000000c0: fdfd 14be 36ec 53be 20fe 2fbe fd1d 14be
000000d0: e588 60be a331 833c 589f 0dbd 4abb 07be
000000e0: 497e f6bd 5694 8abe b3f4 18be c970 2cbe
000000f0: 18f9 a5be e7f7 6fbe df41 f4bd 96f2 8abd
00000100: ede6 34be 9a3c 443e 822e 24be 51b1 54be
00000110: 87ed 24bc 6dc6 17bd 76a1 2dbe c84c e03c
00000120: 57f9 98bd 1562 87bd 7137 35be ca8e 5abe
00000130: db5d 0d3e 336a 60be 5bae 0bbe a339 27be
00000140: 11b6 98be c571 913d 48f5 74be d392 cabd
00000150: 59b3 abbd 151b 6ebb 8b56 b8be 9a59 73be
00000160: 109e d1bd d254 21be ed1c 3abe e729 3ebe
00000170: b1b0 87be a75f 71be 1c62 e0bd 282a ffbd
00000180: c663 4e3d 57d7 bfbd e5af 45be d392 6ebe
00000190: 5342 22be a342 11be 0059 6cbe e091 fcbd
000001a0: 7de5 07be c085 5dbd f680 afbd b578 0c3e
000001b0: 5ecc 90be 4e39 94be 34d4 02bd b597 a73c
000001c0: 0ba9 2ebe 0b9a 79bd e730 c3be 6368 b1bb
000001d0: d981 1bbe 8d89 86be e269 4bbe 2a6b 23be
000001e0: 4ac7 9abd 21d4 44be 4858 8ebe 9095 60be
000001f0: d1de 09bd 48e7 81be 7d56 3dbe 4823 6bbe
00000200: dad5 8cbd f51d 21be 3c45 7abd c4af b4be
00000210: ce0f 20be d0e9 b13a a9eb f3bd fb54 a1be
00000220: af26 383d 739d b0bd 43d7 a7bd 800f f7bd
00000230: 8b1b b7be b619 67be 7f68 24be a7e5 2bbe
00000240: 4e99 f7bd 62f4 41be 4d78 11be df4c 38be
00000250: 67a4 efbc 3a5b 7fbe a544 13be 384f c8be
00000260: bc41 6dbe 8f41 a0bd 1263 8fbd a15a cebd
00000270: b3f5 1bbe 1699 a5bd 0ecf 66bd 2c39 0fbe
00000280: c646 8abe 2a63 9d3d 0e60 673e 65f0 d1bd
00000290: a8f7 9cbd 1696 aabe cb7d d4bd 11e4 2abe
000002a0: 167b b3be 55cc 82bc f7d9 80bd f4a1 d2bd
000002b0: 6b68 e7bd 38a4 003d 5d4e f6bd 9d3e 01be
000002c0: 61c2 1ebe 6b58 18be 3375 5abd 7118 a1be
000002d0: 117d 1abe 7b2a 6fbe b346 12be f558 75be
000002e0: dc31 47be 94d4 243e aa7b 57be 2cdf c53d
000002f0: aa9f 77be 1ec4 b0bd 7cc4 07be ac65 02bd
00000300: ef05 2fbe 836b f23d 4f42 5cbe e141 4dbe
00000310: e069 25be 6e5b acbd a971 e4bd 8a6c d3be
00000320: 639b 8dbe 42ba 1bbe 0c84 59be 0ca4 143d
00000330: 88d9 8d3c 3e24 2fbe de4d 35be 3854 f5bd
00000340: 8119 ebbd 4789 9cbd 19df 54be d68c 5bbe
00000350: b706 98bd 1fe1 31bd d9ac 46be a483 5dbd
00000360: f46e 65bd c022 27be be63 933b c8b9 07be
00000370: e78e 94be 31f2 b9be cb32 56be 3485 49be
00000380: c08c f63d 346e a9bd 86b1 7abe bc89 95be
00000390: d8cb 61be bf66 56be e383 1bbd 1363 293d
000003a0: 27cb 6fbd 8f77 91be b4de 493d e375 2cbe
000003b0: 9b74 7abe 5835 dfbd 6f3d 31be 7ac2 9ebe
000003c0: 6daf 96bb d311 31be 151e 05be a76c 2fbe
000003d0: be1e c6be c5a3 c9bd abd3 8bbd facd 52bd
000003e0: 8172 ddbd 6f01 8cbe 06c4 22be 9588 b0bd
000003f0: 42e9 14bc 7350 27be a749 9abd 424d cebd
-0.20426571 -0.25465313 -0.12805392 -0.28373766 -0.1133527 -0.4658242 -0.10790928 -0.1679581
-0.12409466 -0.1408772 -0.3195301 -0.22882761 -0.045832936 -0.2471395 -0.0840544 -0.105191216
-0.2877915 -0.13766968 -0.16652204 0.06597731 -0.19678995 -0.40175322 -0.19487056 -0.0063043013
-0.2524866 -0.13462833 -0.24006052 -0.28883705 -0.17140141 -0.26683804 -0.108803816 0.013488966
0.003081288 -0.03373663 -0.077449225 -0.0016392875 -0.1154821 -0.029775618 -0.14070112 -0.2229052
-0.03247751 -0.09103207 -0.3136435 0.001577164 -0.11963068 -0.39295465 -0.033636566 -0.06669554
-0.14550014 -0.20695576 -0.17186785 -0.14464565 -0.21927221 0.01601488 -0.03457579 -0.13255039
-0.12035806 -0.27066296 -0.14937095 -0.16839899 -0.32416606 -0.23434411 -0.119266264 -0.06784551
-0.17666216 0.19163743 -0.16033366 -0.20770766 -0.010066397 -0.037054468 -0.16956124 0.027380362
-0.07469433 -0.066105045 -0.1769693 -0.21343532 0.13805334 -0.21915512 -0.1364073 -0.1633058
-0.29826406 0.07101778 -0.23921692 -0.09891286 -0.08383817 -0.003633206 -0.36003527 -0.23764649
-0.10235226 -0.15755013 -0.18175097 -0.18570672 -0.26501992 -0.23571645 -0.10956213 -0.124592125
0.05038812 -0.09367245 -0.1930538 -0.23298196 -0.15845613 -0.14185576 -0.23080826 -0.12332511
-0.13271137 -0.054082632 -0.08569519 0.13717921 -0.2828092 -0.2894997 -0.031940654 0.020458082
-0.17056672 -0.060937922 -0.38123247 -0.005414055 -0.15186252 -0.26276818 -0.1986461 -0.15958849
-0.075575426 -0.19221546 -0.27801728 -0.21932054 -0.03365976 -0.25371766 -0.18490024 -0.22962677
-0.068767264 -0.15734084 -0.061101183 -0.3529035 -0.15631029 0.001357371 -0.11910183 -0.31510147
0.044958767 -0.08623781 -0.08195355 -0.12063503 -0.357632 -0.22568402 -0.16055487 -0.16786824
-0.120897874 -0.18940881 -0.14206047 -0.17998074 -0.029253198 -0.24937144 -0.14381655 -0.3912294
-0.23169607 -0.07825004 -0.07001318 -0.1007588 -0.15230446 -0.080858395 -0.056349806 -0.13986653
-0.2700712 0.0768493 0.22595236 -0.1025093 -0.07664424 -0.3331763 -0.103755556 -0.16688563
-0.35054845 -0.015966574 -0.062915735 -0.10284796 -0.11299213 0.03140661 -0.12026665 -0.12621541
-0.15503837 -0.14877479 -0.053334426 -0.3146396 -0.15086772 -0.23356049 -0.14284782 -0.23959716
-0.19452614 0.16096717 -0.21043268 0.09661707 -0.24182001 -0.086311564 -0.13258547 -0.031835243
-0.17092107 0.118369125 -0.2150967 -0.20044662 -0.1615367 -0.08415876 -0.111544915 -0.41293746
-0.27657613 -0.1520777 -0.21241778 0.03628926 0.017315641 -0.17103669 -0.17705485 -0.11978954
-0.11479474 -0.07643371 -0.2078823 -0.21440443 -0.07423156 -0.043427583 -0.19401874 -0.05408062
-0.056014016 -0.1632185 0.004497974 -0.13254464 -0.29015276 -0.3631759 -0.20917813 -0.19679719
0.12038565 -0.08272973 -0.24481782 -0.29206645 -0.22050416 -0.20937632 -0.037967574 0.04135425
-0.05854335 -0.28411528 0.049284652 -0.16841845 -0.24458544 -0.108988464 -0.17308591 -0.3100775
-0.004598549 -0.17291956 -0.12999757 -0.17131291 -0.3869533 -0.0984569 -0.06827482 -0.051465966
-0.108128555 -0.27344844 -0.1589509 -0.08619801 -0.009088816 -0.16339283 -0.07533579 -0.100733295

bn1.running_mean f4 [256]
00000000: 74fb 6a3e d6c9 74bd 72e6 0f3e b830 47be
00000010: 08a2 29bc 48ec 70be 53f7 263d bdb9 a3bd
00000020: 0a81 983e d19e da3d 5c6d c33d 4939 373e
00000030: 8709 c73d e7e1 42be e073 89be 9ff5 b037
00000040: 4d63 e53c 3582 383d 9623 163e 0e8f 1d3d
00000050: 3f29 63be 6071 5c3e 32ec 45be 859d b43d
00000060: 0258 f9bd a759 803d ea9c 7e3d f8f6 893e
00000070: 6f19 87be 13c1 87be a6ba 85be 523a 863e
00000080: cf8f 40be 8f25 babd 01be 9f3d 41e8 fd3c
00000090: a12b df3c 622d 87be bda9 33be 5cab 9cbb
000000a0: fed2 a9be fc1a 123e 71ca a13d b44c 96be
000000b0: 7106 343d 5175 54be f249 bbba 384b a5bd
000000c0: d96a 713e 0972 d4bd f697 a43d 32ac 053e
000000d0: 119f 74be 6094 5a3e 2735 95bc 7585 903e
000000e0: 97ac 9b3d 7cb7 be3d 1069 37be 5a8a feb9
000000f0: 6542 933c 7cf4 9a3d 402b 31bd ce0b 7abe
00000100: 751f 8f3e 36d8 4a3e 6523 35be a255 173d
00000110: 4ab0 9ebd c141 0cbd a519 273e a40a b5bc
00000120: ed81 86bc 72a6 843e 2e22 f3bd 9e7c bcbd
00000130: 6dc6 763e 22d1 a53c 5931 8e3c 53c7 4a3e
00000140: c6d3 0d3c 6d00 3fbe 24b6 58bd d9f4 08bd
00000150: 8ae6 83be a5d9 173e c201 c3ba dfa4 863e
00000160: ee78 71be f859 633e 3f29 2b3d 5c53 0d3e
00000170: bccb 213e 4ae6 e0bd ad65 a73d 57ae afbd
00000180: 4529 3dbd f154 8ebe c62a 19be 24d3 b93d
00000190: 18e0 86be ab38 533d 5f67 94bc b75e 113a
000001a0: b9eb c6bd 08f0 593e 3b14 5f3e e56e 283e
000001b0: 5f43 5a3d 38ad a33e 7a9d 56be d758 333e
000001c0: 67f0 b4bd 7a83 5fbd 3f18 8abe 5196 953d
000001d0: 3b76 53be 990d a93d 0bed 36bd 0e8b 763c
000001e0: 9e75 3d3d de25 043e 73fe 20bb 87d0 8e3e
000001f0: b43d bf3d d947 a8bd 97b1 d63d 8787 9b3e
00000200: 127e 453e 6bd8 7ebe 800e 19be 1263 083e
00000210: 7a7c 7b3d bda9 8d3e d020 95be 548f 9bbe
00000220: dfd2 b1bd b994 91be d028 85be 9aa4 3ebe
00000230: 46f0 95be ff7f 80be 5243 a33d c792 eabc
00000240: 7c92 8c3e 3a4a 00bd f709 50be 4e98 7c3d
00000250: 08f9 79be a894 3b3d 857e 513c 5d93 dd3d
00000260: efe6 1d3e 5b27 80bc 34f2 1fbd 7acc fbbd
00000270: 3b8f 913e f4e2 10be 5cc1 04be 414f 08be
00000280: d865 e9bc 1d99 80be acaa 613e c5b6 1ebe
00000290: 605a 663e c297 d1bc 526a 46be 03a7 c6bc
000002a0: c6b9 d4bc 295c b0bc 6c85 85bd dcc2 813e
000002b0: f265 9dbe 4e83 8fbd e800 853e 3cb5 eebc
000002c0: 6c1a 3f3e 11be acbd b211 073e cc2e 8c3e
000002d0: f7c9 193e c7a6 a0be 1059 00be 619a 74bd
000002e0: d0da 56be 825e 81be aadb 8abd d49f 8d3d
000002f0: db40 d4bd f826 c3bd 06a8 ffbd 8855 58be
00000300: bd00 2abe 9896 2abe f714 913e 3831 2e3d
00000310: 3697 f3bd 3950 2b3e d5e3 30be 758d 59be
00000320: 114e d3bd 00b6 d93d 308e 3b3e c84f 9c3a
00000330: 7c96 32be 2c7d 65be 069c 90bd 1cf4 0b3d
00000340: 2b43 4abe a598 53bd 4057 933e df0c 033e
00000350: f136 e7bd dec2 ff3b 009c 96bd efc5 d13d
00000360: dc7e 7f3e e6ae 073e ccf7 9fbc b144 02be
00000370: d80b 3d3e 4054 7fbe f0ca a53d 4057 6cbe
00000380: c304 843d cd7f 4c3d dda3 85bd 1ae1 733e
00000390: 60c1 b0bd 33ff a33e 0473 04be d64b 3dbc
000003a0: da34 273e 900d 00be b8af 203c d403 e1bd
000003b0: 7578 3fbb d09d c4bd 6111 373e 9716 31be
000003c0: eaeb a73d 8271 ffbd 9716 f3bd ac61 7b3e
000003d0: 5a27 89be 8956 51be 330a babd 32be e83c
000003e0: c594 8abe 2a34 06be bb36 853e 53bb be3c
000003f0: 2c58 e03d 8e89 0c3e bfa9 1bbe 831a cdbb
0.22947484 -0.0597628 0.14052752 -0.19452178 -0.010353573 -0.23527634 0.04076321 -0.07994411
0.2978595 0.10674823 0.09542343 0.17892946 0.09718614 -0.19031487 -0.26846218 2.1095211e-05
0.028001452 0.04504605 0.14662012 0.038466506 -0.22183703 0.21527624 -0.19328383 0.08819107
-0.12174989 0.062671 0.062161364 0.26946235 -0.26386592 -0.2651449 -0.26118964 0.2621637
-0.18804859 -0.09089195 0.07799912 0.030994536 0.027242484 -0.26401812 -0.17545219 -0.00478117
-0.33168787 0.14268106 0.07899941 -0.29355395 0.043951456 -0.20747878 -0.0014289005 -0.080709875
0.23575915 -0.10373313 0.08036797 0.13053969 -0.23888804 0.21345663 -0.018213822 0.2822682
0.07601278 0.093123406 -0.17911172 -0.00048549735 0.017975995 0.07566163 -0.043254137 -0.24418566
0.27953687 0.1980904 -0.17689283 0.0369469 -0.07748468 -0.034242395 0.16318376 -0.0220998
-0.016419375 0.25908238 -0.11871754 -0.09203456 0.24099131 0.020241324 0.017357515 0.19802599
0.008656448 -0.18652506 -0.052908078 -0.03343663 -0.25761825 0.14829119 -0.0014877843 0.26297662
-0.23581287 0.22202289 0.041787382 0.1380133 0.15800375 -0.10981424 0.0817369 -0.085781746
-0.046181936 -0.2779918 -0.14957723 0.09073475 -0.26342845 0.051567715 -0.018115697 0.00055454246
-0.09712929 0.21282971 0.21785061 0.16448553 0.053286906 0.31968093 -0.2095851 0.17514358
-0.088349156 -0.054568745 -0.26971623 0.07304061 -0.2065057 0.08254547 -0.044659656 0.015047802
0.046254747 0.1290507 -0.0024565726 0.2789347 0.09337941 -0.08216829 0.10483091 0.30376837
0.19286373 -0.24887244 -0.14946938 0.13319042 0.061398007 0.27668563 -0.29126596 -0.30382788
-0.086827986 -0.2843378 -0.260077 -0.18617478 -0.29284877 -0.25097653 0.07971825 -0.028634442
0.2745551 -0.031320788 -0.20316301 0.061668687 -0.24411404 0.045796067 0.012786512 0.10819123
0.15420125 -0.015643766 -0.039049342 -0.1229486 0.2842959 -0.14149076 -0.12964386 -0.13311483
-0.028490946 -0.25116816 0.22037762 -0.15499409 0.22495413 -0.02558506 -0.19376495 -0.02424956
-0.02596749 -0.02152832 -0.06519589 0.25343978 -0.3074184 -0.07007466 0.25977254 -0.029139154
0.18662423 -0.0843469 0.13190344 0.27379453 0.1501845 -0.3137724 -0.12533975 -0.05971754
-0.20981908 -0.25267416 -0.06780179 0.069152504 -0.10363933 -0.09528917 -0.1248322 -0.21126378
-0.16601844 -0.1665901 0.28336307 0.042527407 -0.118940756 0.16729821 -0.17274411 -0.21245368
-0.10317624 0.10630417 0.18315959 0.0011925632 -0.17440218 -0.2241103 -0.07061009 0.034168348
-0.19752185 -0.051659245 0.28777504 0.12797879 -0.11289776 0.0078052124 -0.073539734 0.10242831
0.24950737 0.13250312 -0.019527338 -0.12721516 0.1846155 -0.24934483 0.08095348 -0.23080158
0.06446221 0.049926568 -0.06525395 0.23816338 -0.08630633 0.3203064 -0.129345 -0.011553725
0.16328755 -0.12505174 0.00980752 -0.10987058 -0.0029216085 -0.09600413 0.17877723 -0.17293774
0.08199294 -0.12472822 -0.11869543 0.24548978 -0.26787835 -0.20443167 -0.090839766 0.028411005
-0.27066627 -0.13105837 0.2601832 0.023282683 0.109543175 0.13724348 -0.15201472 -0.006259264

bn1.running_var f4 [256]
00000000: 5b4b fe3e f002 283f 40cb ab3e 54a3 e13e
00000010: 596c 023f 1daf e83e 031d 163f 03ba f73e
00000020: e622 1b3f be4b 353f 571a fd3e 005d e33e
00000030: d164 063f de8c 5b3f 556a e03e cb49 0e3f
00000040: aed7 de3e 7ed5 0c3f 0d03 7a3f cfc6 ba3e
00000050: 8021 f03e d7cb a03e 6139 293f 77d5 0f3f
00000060: d79b b53e 9f90 2c3f 2b63 ac3e c4d1 553f
00000070: f936 f63e c84c ed3e 65ad f23e a82d 4c3e
00000080: 5a8d 053f 737a fe3e cb2e 1d3f 7118 c83e
00000090: b8eb c73e c0f5 733f 10dc 8e3e 9c0c 213f
000000a0: d528 1d3f 6cec 2c3f 4177 ed3e 4f48 d03e
000000b0: 4b33 dd3e 8b28 d93e 073f d73e 2541 fe3e
000000c0: eb8c 633f 7ddf c43e be0c b83e 45df f03e
000000d0: e511 173f 07d9 e33e ea5a d43e 28c8 043f
000000e0: 1731 043f 5398 0c3f a976 123f 50c8 263f
000000f0: 8f65 bc3e 957c 2b3f 35a9 373f aca0 043f
00000100: a2d1 063f 91d5 c13e db74 1c3f 1bbf c13e
00000110: 5012 cd3e c965 013f ec72 3a3f 5055 c23e
00000120: 158c 503f 17ef d43e fbdb c63e 9b1c 113f
00000130: 79c3 b23e e187 023f 8c8a 043f e6e1 113f
00000140: 1049 1e3f a004 123f ab54 313f ed1e ff3e
00000150: 80a2 eb3e f1e6 9f3e 825d 9d3e c723 ec3e
00000160: 8add 193f de17 ec3e 67b1 a13e 353b 173f
00000170: 1743 f43e 91ca 453f 2faa d33e 8ddb 0d3f
00000180: cb33 e23e 5bb7 843e 6816 043f 6c03 343f
00000190: 37c0 813e 1a33 163f 0e55 8d3f d9f7 083f
000001a0: 7efb de3e 5e40 b73e 64be dd3e 9bbb bd3e
000001b0: 5eee 4a3f b70a e93e 4160 0f3f 9d82 c33e
000001c0: 4930 bf3e 281c d33e 7c70 fa3e 1880 a53e
000001d0: 0c74 083f bf3d e73e dbb0 1c3f 3a6d d03e
000001e0: 9856 673f f2cf 103f 42d2 dc3e d50a 0c3f
000001f0: b72e 013f f6a7 003f a5a5 023f d275 1b3f
00000200: ff97 f83e 5d72 093f 7239 cc3e ba29 3a3f
00000210: c6c4 e93e ba5b f03e ae9d 273f 1cc0 2c3f
00000220: 53b5 aa3e 1172 df3e 6d3a d63e a0c9 a83e
00000230: 69e3 f23e a118 ed3e e693 193f b52f 183f
00000240: ac9e c63e 7f2d e93e b4c1 0f3f 6d18 4c3f
00000250: 951f b13e 0fb0 253f 9d01 5b3f 02ab 063f
00000260: a0da 003f 2fe8 d53e 033f 0c3f 3f69 cb3e
00000270: e260 143f 830a 903e 6a21 273f fe3a 0f3f
00000280: 674f ae3e 88e4 fc3e 54e5 403f 4447 c33e
00000290: ccc4 fd3e 5193 d83e 2490 043f 21d5 d93e
000002a0: 145f 583e 7a6e 123f 89af 283f 1f58 c83e
000002b0: 4629 493f 16b2 e13e 1830 bf3e dad6 e23e
000002c0: 54d6 0f3f 357b 4b3f f0fc 923e c612 1c3f
000002d0: c9d4 c23e 0fcc 443f 57f2 063f 9e5f a33e
000002e0: 20f1 203f 6fac e33e 653f 143f 434c bb3e
000002f0: 3b32 173f ea18 313f 5383 023f 488f e23e
00000300: 09a2 8e3e 0e60 063f 9d57 263f 7a4f f53e
00000310: 2d0b a53e 2936 703e c4fe 0b3f 3f90 d33e
00000320: 5d8b 0b3f 2326 353f a0f5 c83e 17d4 153f
00000330: 341e 543f ce41 c93e 84fa 053f 91ab 163f
00000340: 735f 433f 0705 b13e 76f2 143f f982 143f
00000350: 3594 e03e 2370 0e3f 517d 2a3f dbcd 0b3f
00000360: 367f bd3e cb6d 103f 1bdc 573f 3589 b63e
00000370: bc32 233f f6fc fa3e 9a8a b33e cb66 993e
00000380: 05c4 c53e d65a dd3e dc35 fc3e cf2a ad3e
00000390: f119 2c3f 6f9d 2f3f ff21 f93e 8703 f73e
000003a0: 7a60 c43e 5885 bb3e e8c9 c63e 9900 ab3e
000003b0: 13fc 533f b196 d93e ffff e33e 0edc 8d3e
000003c0: bf34 ff3e 51bd 013f b409 293f f8ac 1a3f
000003d0: c254 a83e bb97 163f aa68 fd3e 7e65 a33e
000003e0: db5a ae3e 1a7f f23e 5bca 0f3f aea9 c33e
000003f0: d9e5 ee3e f478 333f fe2e f93e 1b93 063f
0.49666867 0.6562948 0.33553505 0.44069922 0.50946575 0.454461 0.5863802 0.48384103
0.60600126 0.708187 0.49434158 0.4440689 0.52497584 0.8576182 0.43831125 0.5558135
0.43523926 0.55013263 0.97660905 0.36479804 0.46900558 0.31405517 0.6610318 0.56185097
0.3547046 0.67408174 0.3366941 0.835232 0.48088816 0.46347642 0.47397915 0.19939291
0.5216881 0.49702796 0.61399525 0.39081147 0.39047027 0.9529686 0.2790227 0.62909865
0.6139043 0.6754825 0.46380046 0.40680167 0.43203196 0.42413744 0.42040274 0.49659076
0.888869 0.38451758 0.35947222 0.4704534 0.5901168 0.44501516 0.41475612 0.51867914
0.51637405 0.5491993 0.5721231 0.651494 0.36796233 0.6698697 0.71742564 0.51807666
0.52663624 0.3785825 0.6111581 0.37841114 0.40053034 0.50545937 0.72831607 0.37955713
0.8146375 0.4158866 0.38839707 0.56684273 0.3491476 0.50988585 0.51773906 0.5698532
0.61830235 0.5703831 0.6926982 0.49828282 0.46022415 0.31230882 0.30735403 0.46121046
0.60103667 0.4611196 0.3158066 0.5907472 0.47707435 0.77262217 0.41340777 0.5541313
0.4418014 0.2592114 0.5159669 0.7031772 0.2534196 0.58671725 1.1041582 0.53503186
0.43551248 0.35791296 0.4330932 0.37057194 0.7926997 0.45515987 0.56006247 0.38185588
0.37341526 0.4123242 0.48913944 0.3232429 0.53302073 0.45164296 0.6120736 0.40708333
0.90366507 0.565673 0.43129164 0.5470403 0.50461906 0.5025629 0.51034003 0.60726655
0.48553464 0.5369013 0.39887577 0.7271992 0.4565794 0.46944982 0.65474975 0.67480636
0.33341464 0.43641713 0.4184145 0.32966328 0.47439125 0.46307853 0.599913 0.59447795
0.38792932 0.45542523 0.5615494 0.7972477 0.34594408 0.6472177 0.85549337 0.5260469
0.50333595 0.41778705 0.5478365 0.39728734 0.5796033 0.2813302 0.6528536 0.5594939
0.34044954 0.49393106 0.75349927 0.3814031 0.49564207 0.42299893 0.5178244 0.42545417
0.2113002 0.57199824 0.65892845 0.3912973 0.78578603 0.4408118 0.3734138 0.44304544
0.56186414 0.79484874 0.287086 0.60966146 0.38052967 0.7687387 0.5271353 0.31908888
0.6286793 0.44467494 0.5790923 0.3658162 0.5906102 0.6917864 0.50981635 0.4424994
0.27857998 0.5249032 0.6497744 0.47912198 0.3223509 0.2345816 0.54685616 0.4132099
0.54509526 0.70761317 0.39249897 0.5852675 0.82858586 0.39308017 0.5233538 0.5885554
0.7631752 0.34574148 0.58182466 0.5801235 0.43863073 0.5563986 0.6659747 0.54610986
0.37011117 0.5641753 0.8432023 0.35651556 0.6374929 0.4902112 0.35066682 0.29961237
0.38626114 0.43233365 0.4925984 0.33821723 0.67227083 0.685996 0.4865875 0.4824488
0.38354856 0.3662517 0.38825917 0.33398893 0.8280651 0.4249778 0.44531247 0.2770695
0.4984493 0.506795 0.6603043 0.6042018 0.32877165 0.5882527 0.49493915 0.3191337
0.34053692 0.47362596 0.56168145 0.38215393 0.46659735 0.70106435 0.48668665 0.52568215

fc2.weight f4 [128, 256]
00000000: f6db 4bbd 2627 8a3d ffa8 043e 36eb 27be
00000010: 47d8 05be b3b8 4e3d f282 843c b808 943d
00000020: fa16 9b3d 4b3c 403e 3166 c43c ef7c 71bd
00000030: f104 753d eaa5 25bd 602c f63c e855 52bc
00000040: 86b0 223e 6735 8b3d 7e13 b1bc 8b41 583d
00000050: c2b5 ae3c 0d8b 173e e34c 953c fb43 bd3d
00000060: b68d 4cbc 5c0d f2bc 6ea8 d33d c275 173c
00000070: e144 34bd ddb0 31bd be34 73be bb0f d8bc
00000080: 1d93 273e f1b5 133d d1ef fc3c 383a 00bd
00000090: 7005 18be 4c9a 813e 1cbc 94bd d386 1abd
000000a0: d01d a03d 33d7 7cbe 8d7f 0e3c b95e 553d
000000b0: 736d e23c 2709 7a3d 9bfb 143e a4ea a23d
000000c0: 55c1 59bd 10e3 233e 996b 2cbe d8c2 c3bc
000000d0: 07fd bcbd d34e 573d 1a6f 083e 3db7 f0bd
000000e0: 49d2 b83d 5796 eebc 48b4 b73a 8b4d 19be
000000f0: 13cd f13d 852c fc3d b0f2 17bc 9641 503d
00000100: 9db9 013d cb54 cc3d 13a3 a93b b00e e4bc
00000110: 3074 853c f124 8c3c 671d 043e 6c38 55bd
00000120: be0e fa3c 2eda e53d 645d 57be e06d cdbd
00000130: d082 f9bb 71a3 543d 6142 0f3e 018b 663c
00000140: 5024 1fbe 1fc6 d2b9 1743 71be 81f9 fb3c
00000150: 4fab 18be f8cb 0a39 f0ec 1a3b 27b7 16bd
00000160: 0861 943c 97fa 5bbd 2f11 ccbc f028 ddbc
00000170: d163 75be 5652 8ebd 1417 51bd ab1c 5fbd
00000180: c35a 6a3c 60a0 5d3c 2b89 4f3e 2b8f 213e
00000190: aa51 a5bd fd37 1ebe 67ed 0fbd 0211 af3d
000001a0: b317 8b3e b449 453e c318 59bd 1ee4 0bbc
000001b0: 65f1 b13c 575b 5ebd 4d47 3e3d a8e1 c83d
000001c0: 1d1d ae3a c9cf b1bd 69f8 363d 4cd0 303e
000001d0: f4c5 8dbd 4fa4 cbbd e2ac c0bb b26c 9abc
000001e0: 1b59 3fbd ea41 66be 12d5 933d c74a af3d
000001f0: 0102 243e 76ed 9ebc 21e7 583d 6ba0 473d
00000200: f247 c13d 7e9d bebe 80d7 e6bc 8961 313d
00000210: fe5d 073e 5b53 6e3d e8a6 603e 279a ccbd
00000220: 677c 3d3d fe56 fdbd 9357 82bb de99 1cbc
00000230: bdb3 b23d f88d d63d 9371 93be 577b 0b3e
00000240: a0af 6c3d a2c2 743e 5620 823e b52b 07bd
00000250: 60e2 f83c 31d4 4dbd e385 c4bd e3da 94bd
00000260: a52d d83a f847 783c d134 78bd d18a e63c
00000270: 8427 933b c2e0 a13d 4330 b03d 6dd7 fd3d
00000280: 00e2 403d cd24 8fbd cd8b 813b b9db 693b
00000290: 3bba 01bd 06ba 253e 94a4 0f3d d374 1c3d
000002a0: b243 35bd e048 36bd 7b21 d5bd babd 5fbc
000002b0: 2dea df3c 6ea5 a8be 2d37 433c 9a3d e3bd
000002c0: a7e0 42be 0e1b 763e 20ab 3dbc 8327 8dbb
000002d0: d700 923d 5b0c ba3d 64a6 e2bd 9a3d d33d
000002e0: e291 063b c68d e0bc 34c2 48be e532 c0bd
000002f0: fb4d b6bd 1d91 22be 7a15 e0bd 0483 dbbd
00000300: e74d 1fbe 577b 18bd 2ccd 663d 1c5d 5a3d
00000310: f10c 2ebd 622d 9bbd cbc5 a43d 3fdf 79bc
00000320: b0ef c43d e6dc 853e eba8 29bd d516 4c3d
00000330: c075 1ebe 1f4e 243e d3f4 293e 9c2d 863d
00000340: b67b 4fbe c507 5c3e 28d2 85bc 4622 4fbd
00000350: 1b70 73bb 7ff4 d63d d400 9bbd 4d39 1ebd
00000360: f253 4bbc 7ea9 1c3d 1e29 d53d 7f7a 56be
00000370: 0ce5 edbd d619 c43d 6717 ae3d 932b 33bd
00000380: 38e3 47be cb10 8bbe 5acb bcbd d0a7 29be
00000390: b3ad 54bd 32e0 3fbe 9809 48be 71a6 ec3c
000003a0: 9509 44be 1968 e33b 5f64 e7bc a3e6 8ebd
000003b0: 8b2a 9ebc 8ce6 cfb9 5e8b 063e fd7d 7fbe
000003c0: a3e7 9f3d bcd8 1dbc 9759 f43c 8e18 1e3e
000003d0: a2d2 913d 4eef 923d 0502 f5bb 78a8 e63d
000003e0: 51ee 623d 677d ecbd 9227 0bbd 1548 89bc
000003f0: ddb6 0d3e 4da5 7fbd b1ea 7d3c 054b a43d
-0.049770318 0.06745748 0.12955092 -0.1639832 -0.13070785 0.05046911 0.01617572 0.072282255
0.07572742 0.18773 0.02397451 -0.058957037 0.059819166 -0.04044143 0.030050457 -0.012837864
0.15887651 0.06797295 -0.02161574 0.05279688 0.021326903 0.14799137 0.018225139 0.09241482
-0.012484958 -0.029547386 0.1033486 0.009244384 -0.044011 -0.04338156 -0.23750588 -0.026374688
0.16364713 0.036062185 0.030876072 -0.03130552 -0.14845824 0.25313032 -0.072624415 -0.037726235
0.07818186 -0.24691467 0.008697403 0.052092288 0.02764008 0.061043885 0.14549105 0.079549104
-0.05316289 0.16004586 -0.1683792 -0.02389662 -0.09227949 0.052565407 0.13323632 -0.117537
0.09024484 -0.029124422 0.001401552 -0.14970987 0.11806693 0.12313179 -0.00927417 0.050843798
0.031671155 0.099771105 0.0051769107 -0.027839035 0.016290754 0.017107459 0.12901841 -0.05205576
0.030524608 0.11223255 -0.2103172 -0.100307226 -0.007614471 0.051913682 0.13990165 0.014071227
-0.15541196 -0.00040201933 -0.23560749 0.030758621 -0.14909099 0.0001323669 0.002363976 -0.03679576
0.018112674 -0.053705778 -0.024910538 -0.02699706 -0.23963858 -0.06949298 -0.0510474 -0.0544707
0.014303866 0.013527006 0.20267169 0.1577727 -0.08072217 -0.15451045 -0.035138514 0.08548166
0.2716652 0.19266397 -0.05300213 -0.008538274 0.021721551 -0.054286327 0.046454716 0.098086655
0.0013283823 -0.0868221 0.044670496 0.17266959 -0.06922522 -0.09943449 -0.0058799842 -0.018850658
-0.046715837 -0.22486082 0.07218374 0.085591845 0.1601639 -0.01940034 0.052954797 0.04873697
0.094375506 -0.37229532 -0.02817893 0.043305907 0.13219449 0.058184963 0.2193867 -0.0999034
0.046261217 -0.12370108 -0.003977725 -0.009558169 0.087256886 0.10476297 -0.28797588 0.13621269
0.057784677 0.23902372 0.25415295 -0.033000667 0.030381382 -0.05025119 -0.09595849 -0.07268312
0.0016493095 0.015153877 -0.060597245 0.028142365 0.0044907946 0.07904197 0.08602955 0.12394605
0.04709053 -0.06989441 0.003953433 0.0035683943 -0.031671744 0.16184244 0.035069063 0.03819735
-0.044254012 -0.044503093 -0.104067765 -0.013656074 0.027333343 -0.32938713 0.01191501 -0.11095734
-0.1903101 0.24033758 -0.011576444 -0.0043076887 0.071290664 0.09084388 -0.11066893 0.10314484
0.002053373 -0.027411353 -0.19605333 -0.09384707 -0.08901592 -0.15875669 -0.10941596 -0.107183486
-0.15557061 -0.037227 0.05634801 0.053311452 -0.04249281 -0.075770155 0.080455385 -0.01525098
0.09616029 0.26145095 -0.04142086 0.04982646 -0.15474606 0.16045426 0.165973 0.06551668
-0.20262036 0.21487339 -0.016335562 -0.050569795 -0.0037145677 0.10495853 -0.07568517 -0.038628865
-0.012410151 0.038247578 0.10408233 -0.20945166 -0.11615953 0.0957524 0.085005574 -0.043742727
-0.19520271 -0.2716125 -0.09218474 -0.16567922 -0.051923465 -0.18737867 -0.1953491 0.02888796
-0.1914428 0.0069398996 -0.028246103 -0.06977584 -0.019307395 -0.00039653888 0.13139102 -0.24950404
0.07807853 -0.009634193 0.029827876 0.15439054 0.07120253 0.0717455 -0.0074770474 0.112626016
0.055403057 -0.11547356 -0.033973284 -0.016758004 0.13839288 -0.062413502 0.015497849 0.08022121

fc2.bias f4 [128]
00000000: ee80 363c 08dc 0abc ceea 2abd c1c4 79bc
00000010: 8ce9 50bb 90c3 3bbd 7c31 56bd 87d1 223c
00000020: 4211 6abd 0140 4a3c f77c 0ebc f073 7e3c
00000030: 65bf 53bd f443 e53c 523b 1fbd d735 693c
00000040: 7ab8 3cbd 6df0 6a3c deb4 e93c 177f 753d
00000050: 7ca5 17bb 4708 13bd cab0 16bd bd5e 5b3d
00000060: fd5d 74bd bee0 f93c f055 633d f390 43bc
00000070: e396 ca39 55a3 cebc a78c 88ba dc59 2cbd
00000080: 7c14 92bb b7c5 0bbd 3cf0 63bd c868 6bbc
00000090: 19fa 733d 65c5 2b3d 2bfc 613c 5e17 3a3b
000000a0: 1ef2 1fbd 2059 2b3d b882 6ebd fe41 8fbc
000000b0: 7dfe 6bbd 0658 fe3b 0f3d 12bd 1a38 2a3a
000000c0: eb1c 453d 030d 1bbd e79d af3c 535d 0d3b
000000d0: d430 623b d8e8 4a3d e3ec 65bd a6a1 6d3d
000000e0: 3b61 65bd 6765 9dbc de77 86bc de77 873b
000000f0: e59a e8bb 67dd 3dbd 98ba 6d3d 607a 78bd
00000100: 8a78 bebb 4f70 71bd ca7c 71bd d897 453d
00000110: 46e4 52bd 7526 543d cc3e 6fbc 1072 503d
00000120: a6a4 a03c 472f 9e3c c72c 1a3d 8b1a d53c
00000130: a609 9bb9 804b bc3c c106 5dbd 2c66 42bd
00000140: b735 86bc 074a 4a3c e2ad 7b3d ed87 923c
00000150: 2a72 f73c 86b9 f3bb fe4f 4e3d 6273 adbc
00000160: 35bb 82bc dd74 70bd 9e76 483c 2274 3c3d
00000170: c90a e5bc 9ef2 103d 6381 1a3c 5773 12bb
00000180: 38ed 613d 7fe9 1c3d a1f7 3abd a57c 45bb
00000190: 62ed 4bbd 8f20 22bd 9245 1a3d acad 4b3d
000001a0: bd32 1abd 3465 7cbc fa90 38bd 0e86 f4ba
000001b0: a23c 2b3d a8a6 533c 6513 693d a757 91bc
000001c0: 71b8 70bb 1680 dfbc b4ef f8bc ca96 8cbc
000001d0: a110 223d 0906 573d 268e 893b 9d04 71bd
000001e0: c596 e3bc 9c4c fdba 2afa 733d 763b 3a3b
000001f0: 9a08 a4bc f7cf 19bd 9f64 b9bc 8e18 00bd
0.011139138 -0.008475311 -0.041727833 -0.015244664 -0.0031877486 -0.0458408 -0.052293286 0.0099376505
-0.057145365 0.012344361 -0.008696786 0.015530571 -0.0516962 0.027986504 -0.03887493 0.014234028
-0.046074368 0.014339549 0.028528627 0.059935655 -0.0023139408 -0.035896566 -0.036789693 0.053557146
-0.059659947 0.030502673 0.05550188 -0.011936414 0.00038640862 -0.025224367 -0.0010417894 -0.042077884
-0.0044580083 -0.034124102 -0.055649027 -0.0143682435 0.059564684 0.041936297 0.013793032 0.0028395276
-0.03904926 0.041833043 -0.058230132 -0.017487522 -0.057615746 0.007761958 -0.03570276 0.0006493345
0.04812328 -0.037854206 0.021437598 0.0021570518 0.0034513967 0.049538463 -0.056134116 0.058015488
-0.05600093 -0.019213391 -0.016414579 0.0041341623 -0.007098543 -0.046353724 0.058039278 -0.06066358
-0.005812709 -0.058944996 -0.0589569 0.048240513 -0.05148723 0.051794488 -0.014602374 0.05089003
0.01960976 0.019309653 0.03764036 0.026013633 -0.00029571092 0.02298522 -0.05396152 -0.04746072
-0.016383035 0.012346751 0.061445124 0.01788708 0.030205805 -0.0074378876 0.050369255 -0.021173183
-0.015958408 -0.0587052 0.012235312 0.04600919 -0.027959244 0.035387628 0.009430262 -0.002234658
0.05515787 0.038308617 -0.045646314 -0.0030134108 -0.049786933 -0.03958183 0.037664004 0.049726173
-0.037646044 -0.015404988 -0.045060135 -0.0018655674 0.04180587 0.012918152 0.05690326 -0.017741991
-0.003673103 -0.027282756 -0.030387737 -0.017161746 0.03956664 0.05249599 0.0041978536 -0.05884229
-0.027781853 -0.00193252 0.059564747 0.002841679 -0.020023633 -0.037551846 -0.022630988 -0.031273417

bn2.weight f4 [128]
00000000: 9c64 843f 35bc 753f 93bc 833f 15ef 5a3f
00000010: b59a 433f 00f7 743f ba3f 773f 3afe 7c3f
00000020: e0b4 7a3f 8f36 8a3f 8ccf 8d3f 15c6 823f
00000030: 0c39 643f 14e1 703f 4dcf 703f cea3 543f
00000040: 5742 773f a924 873f bc18 793f 9606 7e3f
00000050: b286 5c3f 32d2 7f3f 7997 773f 1e9e 7b3f
00000060: 2168 913f 5825 7e3f 22aa 793f 4afd 6b3f
00000070: e289 8f3f 085d 803f 0bd4 833f 5947 763f
00000080: 5f59 8a3f 0e0c 853f ff9c 773f 4930 613f
00000090: e2ec 853f 7a98 533f 54c7 753f 7b31 5e3f
000000a0: 80d2 893f fd39 7a3f 986e 793f 7e6c 583f
000000b0: 25f4 8d3f 2e2c 7b3f 3d26 8d3f 4fab 673f
000000c0: e449 783f 4cfb 843f 8e0e 803f 5d8b 6f3f
000000d0: ff12 413f 6254 783f ab24 5c3f e1d1 723f
000000e0: 140f 7a3f 82ae 893f 9ecf 903f c98b 823f
000000f0: 0c7a 7d3f c27b 783f fe1d 853f 06b2 7a3f
00000100: f192 8e3f e446 803f 5ee5 803f f36a 713f
00000110: 62e5 793f 749d 603f 55fe 5e3f 61aa 493f
00000120: d8ae 8d3f 09cd 6f3f 55fa 9b3f bbbe 813f
00000130: 959a 653f 72a0 883f 3506 703f c2a9 703f
00000140: 0411 853f 56ea 813f f0fe 773f e4dd 813f
00000150: b8d0 813f 8641 713f 04fe 893f baec 393f
00000160: dd94 853f c327 7e3f 4418 7e3f 131b 8d3f
00000170: b98a 783f 968e 843f 0f10 863f 96e2 8b3f
00000180: 97fb 783f ced2 883f 31a4 863f 2e82 7f3f
00000190: 9401 893f 8913 853f d3e4 863f 7de9 693f
000001a0: 8c8c 703f 9c00 7f3f bb63 853f 49cb 733f
000001b0: b36e 473f 6cf7 8b3f 31f8 4d3f 7e07 8a3f
000001c0: 254d 6f3f 74a1 723f 1afc 923f 2dfb 673f
000001d0: 3597 7f3f 9c5f 823f d886 823f e382 713f
000001e0: 3e3b 6f3f 7a87 733f 1f37 633f 772e 823f
000001f0: b4d9 6f3f fbc2 783f 06b5 8b3f e842 883f
1.0343204 0.95990306 1.0291923 0.8552106 0.7640794 0.9568939 0.96581614 0.9882542
0.97932243 1.07979 1.1078963 1.02167 0.89149547 0.9409344 0.94066316 0.83062446
0.965856 1.0558063 0.97303367 0.992288 0.8614303 0.9993011 0.96715504 0.9828814
1.1359903 0.9927573 0.9752523 0.92183363 1.1213953 1.0028391 1.0299085 0.9620262
1.0808524 1.0394304 0.9672393 0.879643 1.0462916 0.82654536 0.96007276 0.8679425
1.0767365 0.97744733 0.9743438 0.84540546 1.1090132 0.9811429 1.1027294 0.9049577
0.9698775 1.038919 1.0004442 0.93572026 0.7541961 0.9700376 0.8599345 0.948515
0.9767926 1.075638 1.131336 1.0198909 0.99014354 0.9706384 1.0399778 0.9792789
1.1138593 1.0021634 1.0069997 0.94303817 0.97615635 0.87740254 0.8710683 0.787756
1.1068983 0.93672234 1.218577 1.0136331 0.89689 1.0673964 0.9375947 0.9400903
1.0395818 1.0149639 0.9687338 1.0145841 1.0141821 0.94240606 1.0780644 0.7262684
1.0436054 0.9927942 0.99255776 1.1023887 0.97086674 1.0356014 1.0473651 1.0928524
0.97258896 1.0689332 1.0518857 0.99808013 1.0703607 1.0396587 1.0538582 0.913719
0.9396446 0.99610305 1.042106 0.95232064 0.7790329 1.0934882 0.80456835 1.0783536
0.9347709 0.9477761 1.1483185 0.9061764 0.998401 1.0185428 1.0197401 0.9434034
0.9344977 0.95128596 0.88755983 1.017043 0.93691564 0.97172517 1.0914619 1.0645418
