CS273A/Project/models/simple_nn_model.pth (torch, 42648 bytes, 5 tensors)

fc1.weight f4 [128, 12]
000000 df bf 4f be e8 ba 12 3e 03 e6 ef bd 19 3f 15 be
       -0.20288037 0.14329112 -0.11713793 -0.14574851
000010 65 b8 bf bd ff f0 67 bd 8e 26 03 3e 3d 92 1c 3e
       -0.09361342 -0.056626316 0.12807676 0.1529016
000020 f8 78 b8 3e c9 48 c9 bd ff 1b ee be d5 26 17 3d
       0.36029792 -0.09828336 -0.46505734 0.036902267
000030 5a e5 9b be e9 9c 00 3d ba a3 1b bd 6e ea b4 3d
       -0.3044842 0.03139964 -0.03799794 0.088337764
000040 e2 14 76 3e 52 b7 1f be 73 7c c6 3c eb 02 cf 3d
       0.24031404 -0.15597275 0.024229264 0.101079784
000050 19 1a 2a be 53 6c fe bd 41 65 ec be 5e dd 82 3d
       -0.16611518 -0.12423005 -0.46171 0.06389879
000060 00 09 d0 be 93 a6 43 3e 0b 0c 55 be 0c fc a5 bd
       -0.40631866 0.19106512 -0.20805375 -0.08104715
000070 b8 82 54 39 d9 4a 03 bf 6a 7f 0b be 1f c0 15 3e
       0.00020266592 -0.51286083 -0.13622823 0.1462407
000080 6c 87 c9 be a3 c8 ba 3d 75 b4 df bd d0 1b 96 3e
       -0.3936113 0.091203 -0.10923091 0.29318094
000090 6e 29 cd be cf af 1a be 09 48 67 3d ff f1 88 be
       -0.4007067 -0.15106128 0.056465182 -0.26747128
0000a0 4b fb 61 3d e6 ea 04 be 3a 01 b2 3d ea 5c db 3d
       0.055171292 -0.12980232 0.0869164 0.10711081
0000b0 4d 9f 43 3d 6d 51 8e 3e 88 21 bc bd 45 1f 16 3e
       0.047759343 0.27796498 -0.09186083 0.14660366
0000c0 f0 c8 46 3e 50 38 e5 bd bf be 9b 3e b8 9d a6 3e
       0.19412589 -0.111923814 0.30418965 0.32542205
0000d0 ea 9b 0c 3e e7 a4 70 be 82 d1 bc 3e 92 e5 0d be
       0.13731351 -0.23500405 0.36878592 -0.13857105
0000e0 ff 54 08 bd f2 cc 0e be 08 02 c5 bc 77 f2 b2 3d
       -0.033284184 -0.13945368 -0.02404882 0.08737653
0000f0 0c b7 fc 3d 4c e5 80 be ff 7a e0 3b 09 61 4b be
       0.12339601 -0.2517494 0.0068506 -0.19861235
000100 80 f8 5a bc 29 a5 0c 3e 92 8e b0 3d 8b d1 af bd
       -0.013364911 0.13734879 0.08620943 -0.08584889
000110 ae 69 86 3e 0e b5 fc 3d 86 1e a4 be 91 37 1d 3e
       0.26252502 0.12339221 -0.32054538 0.15353228
000120 a8 3e ee be c5 40 2b 3d 60 a4 fa bc 3f e3 6b be
       -0.46532178 0.041809816 -0.030595958 -0.23035906
000130 bc c4 b1 3e 32 26 eb 3c af fd ce bd b1 5e f7 bd
       0.3472041 0.028704736 -0.1010698 -0.12078608
000140 af cd fc bd 72 c3 92 be 79 ee 30 be 41 4f 15 3e
       -0.123439185 -0.28664738 -0.1727847 0.14581014
000150 6a ce 97 be 3b 93 90 3e f8 57 52 be cc c7 63 be
       -0.2964967 0.28237328 -0.2054137 -0.22244185
000160 1c 04 00 3d 72 f0 ee bc be bf ba 3d 2c 8b 95 be
       0.03125392 -0.029167388 0.09118603 -0.29207742
000170 c3 dd 42 3e a4 d3 2c bf af f5 00 3e 43 92 66 3e
       0.19029908 -0.6751044 0.12593721 0.22516732
000180 9b d9 39 bf 37 f7 12 be a5 1c 40 3d 06 9b 7f be
       -0.72597665 -0.14352117 0.046902318 -0.2496148
000190 43 08 a4 3e 4b dd d0 3c 4d 46 b7 bd 1c 20 08 bd
       0.32037553 0.025496146 -0.08948956 -0.033233747
0001a0 16 60 08 be be 2e 50 3d b9 5b bc 3b df a6 a9 3e
       -0.13317904 0.050825827 0.005748239 0.33135125
0001b0 43 ea a3 3d 8f d4 f0 bd 8c 34 95 be 6d ed a5 be
       0.08003666 -0.11759292 -0.29141653 -0.32407704
0001c0 9a ad 88 3d 41 00 3d 3e b5 d1 06 3e 70 8f 7e be
       0.06673737 0.18457128 0.13165934 -0.24859405
0001d0 0f 31 b5 3c 55 c2 e4 bd ba 13 5d 3e 2b fc 84 3e
       0.02211812 -0.111698784 0.21589556 0.2597364
0001e0 04 64 d3 bd 36 1f 60 3e 46 f9 d1 be be 93 29 be
       -0.10321811 0.21886906 -0.41010493 -0.16560265
0001f0 c2 63 31 3e f6 03 55 3e 11 13 53 3e 0b 89 05 3e
       0.17323211 0.20802292 0.20612742 0.13040559
000200 b5 d4 43 bd 56 f4 8d 3e 2b 00 8d bd b2 4c 4e be
       -0.047810275 0.27725476 -0.06884798 -0.20146444
000210 2d 9f 5f be a8 66 c9 3d f1 0a 69 bd e3 49 a8 3e
       -0.21838064 0.09834033 -0.0568952 0.3286887
000220 df 5c 38 be c7 fe 89 3d 02 99 9c 3e 6d cd 1d be
       -0.18004178 0.06738048 0.30585486 -0.15410395
000230 1f 5e 17 3e 29 98 a4 3e 8c 88 3f be 5d a8 75 3e
       0.14781998 0.3214734 -0.18704432 0.23990007
000240 db d3 2d 3d a9 5b 92 3d 6c 7d 0e 3d fc 6e 40 bd
       0.04243837 0.07146389 0.03478758 -0.046980843
000250 91 e4 a1 be ab 95 38 bd 9e 07 43 bd 10 c1 97 be
       -0.31619695 -0.04506461 -0.047614686 -0.29639482
000260 6c 96 fa be 0b b0 09 3e 11 5e 41 3e 1a 13 81 bd
       -0.48942888 0.13446061 0.1888354 -0.063024715
000270 5b e6 91 be ec 36 08 3e af 27 a5 3d e3 b8 05 be
       -0.2849606 0.13302201 0.0806421 -0.1305881
000280 66 11 a3 bc 62 c4 c6 bd 8b ec a0 3d 24 6b 2d 3e
       -0.019905757 -0.09705426 0.07857617 0.16935402
000290 17 6d 8f 3e 99 85 aa bd 74 c0 01 bf 75 30 50 3d
       0.28012916 -0.08326263 -0.50684285 0.050827462
0002a0 a4 d3 cb 3e 4c 03 cd 3d d3 f4 5c 3c f5 36 8d bd
       0.39809906 0.100103945 0.013486105 -0.06895248
0002b0 23 c9 d2 3d a1 be 7e bd 9a dd 2d bd 41 b4 0a 3e
       0.1029227 -0.062193517 -0.042447664 0.13545324
0002c0 41 8c 20 3e c6 f7 c2 be 3d fd ac be 63 9f 27 be
       0.15678503 -0.3807966 -0.33786955 -0.16369395
0002d0 7d 08 25 3e a0 a2 86 3e e6 3b b1 bd 95 b3 88 be
       0.1611652 0.26295948 -0.08654003 -0.2669951
0002e0 fd 56 a0 be 33 91 fb bd 99 0b e0 3d 7e f0 76 be
       -0.31316367 -0.12283554 0.10939712 -0.24115178
0002f0 ce 8d 80 3e 22 b1 a6 be fe a2 41 be 93 83 94 3d
       0.25108188 -0.32557017 -0.18909833 0.07251658
000300 88 7e 59 3e 26 a4 d7 3d 13 75 a4 3d 68 f5 dc 3e
       0.21239674 0.10529356 0.08030143 0.4315598
000310 ed 5e 1e 3d 3a b8 ca 3d 2d 68 32 bf 97 b6 00 3d
       0.038664747 0.0989842 -0.6969021 0.03142413
000320 e6 16 09 3e d4 9c f1 ba 61 b7 24 3d 82 b9 ed bd
       0.13387641 -0.0018433579 0.040213946 -0.116076484
000330 de 6d 59 3e 34 86 95 3e 63 00 af 3c 48 7f 9d be
       0.21233317 0.2920395 0.02136249 -0.3076117
000340 3d 16 24 3e cc 1f ab bd fc 32 6a 3d 50 32 0c be
       0.16024108 -0.08355674 0.05717753 -0.13691068
000350 8a 6b 5f 3e b8 45 27 be 2c fc ef bd 7b 8f 7c 3e
       0.21818367 -0.1633519 -0.1171802 0.24664108
000360 1f de cf 3e b1 83 68 3e d9 1c cd bd e0 f5 ac be
       0.40599152 0.22706486 -0.10015268 -0.33781338
000370 cd 6e 68 3c 63 f1 fd bb 9f 0e 93 3d 8f 60 1c be
       0.014186573 -0.007749723 0.07180523 -0.15271209
000380 10 70 83 bc 3c 33 75 be 71 bd 5b 3e 1c b1 24 bd
       -0.016044647 -0.23945326 0.21458985 -0.040207967
000390 4e 7d 59 3d df 88 ac 3b 75 ec ff bd 42 29 bc bd
       0.053098015 0.0052653397 -0.124962725 -0.09187557
0003a0 f1 46 36 3e f8 f8 0e be 61 a6 01 3d 97 2d e3 3d
       0.178005 -0.13962162 0.031652812 0.1109268
0003b0 61 7d 73 be 7d 54 00 be 49 4a a9 bd 28 ce 42 be
       -0.23778297 -0.1253223 -0.08266122 -0.19023955
0003c0 ae 8e 44 bc 38 ba 00 3e fb 71 4b be e5 bc 8a be
       -0.011996908 0.12571037 -0.19867699 -0.2709724
0003d0 77 99 cc 3e f9 f9 cf bd d8 7a 09 3c be 8f f8 3d
       0.39960834 -0.101551004 0.008391105 0.12136792
0003e0 8d 81 09 3e 24 93 06 be e1 5d 84 be 73 f3 8f 3d
       0.13428326 -0.13142067 -0.25852874 0.07028856
0003f0 71 2b a6 bc 11 21 14 be 70 f3 87 bc 57 84 9a be
       -0.020284386 -0.14465739 -0.016595572 -0.30179092

fc1.bias f4 [128]
000000 ce a2 9e bd eb 41 42 3e 02 3b be bc 5f 57 6a 3e
       -0.07745896 0.18970458 -0.023221496 0.22884892
000010 4a 37 84 be aa 13 fe 3c 1b 2a 96 3e 21 0c f1 3d
       -0.25823432 0.031015236 0.29329 0.117698915
000020 41 fc be 3d 39 a9 a0 3e 6b a9 c0 bc 57 f4 e7 bd
       0.09325457 0.31379107 -0.023518285 -0.11325901
000030 a3 d1 9c 3e 17 82 03 be f9 95 20 be 8e a3 74 3e
       0.3062869 -0.12842594 -0.1568221 0.23890516
000040 1f 26 85 bd 89 c4 9a be 16 b9 74 3e f7 8e 90 3e
       -0.06501412 -0.3022807 0.2389873 0.28234074
000050 c8 36 30 3e e9 e5 d1 bd ce 52 1c 3c ac 29 98 be
       0.17208397 -0.1024893 0.009541227 -0.29719293
000060 95 56 4d 3e ff ea c5 3d f0 1a 43 bd 64 1d 89 3e
       0.2005256 0.096639626 -0.04763311 0.26780236
000070 8d 1e ba bd 02 88 6d bc 21 7d 94 bd a2 1d d4 3d
       -0.09087858 -0.014497759 -0.07250429 0.103572145
000080 cb 0a 29 be f8 53 6b be 2e c5 12 3e 8d d2 51 3b
       -0.16508023 -0.2298125 0.1433303 0.0032016367
000090 97 9f e8 3d 22 fa 29 bd 83 49 f6 bd 8a 73 55 be
       0.11358564 -0.04149831 -0.1202574 -0.20844856
0000a0 a3 2c 70 be 8c 16 16 bd 6f 90 f6 3d dc 61 46 3e
       -0.23454528 -0.036642596 0.12039267 0.19373268
0000b0 f7 89 76 3e 82 3b 1d 3e e8 6c 7c be af 0e 8a bd
       0.24076067 0.15354732 -0.2465092 -0.06741082
0000c0 a6 79 bb 3d 19 95 df 3d 88 e8 3a 3c 4a b8 9b 3d
       0.09154062 0.1091711 0.011407979 0.0760351
0000d0 f1 a2 bc 3e f5 7b cd bd 72 62 39 be 02 69 ed 3d
       0.36843064 -0.100334086 -0.1810396 0.11592294
0000e0 43 55 82 be 18 44 8c 3e e2 a7 0e be 60 12 71 be
       -0.25455675 0.273957 -0.1393123 -0.23542166
0000f0 57 5e ca 3e 54 38 85 bd 6b 08 24 be 3b 8f b0 3d
       0.395251 -0.06504884 -0.16018836 0.08621069
000100 75 9a 2a 3e 56 31 c3 3e f0 3a 83 be d4 f5 9b 3d
       0.16660483 0.38123578 -0.25630903 0.07615247
000110 af 56 41 bd 6e fc 02 be 37 0a 37 be 06 d7 29 3e
       -0.04720181 -0.12791607 -0.1787499 0.16585931
000120 aa 1a 87 bd e7 89 05 3a fe 0c 63 3e ce 61 8b be
       -0.06596883 0.00050940964 0.22172925 -0.27223057
000130 b0 f0 24 3d ab 84 06 be 00 c3 cd 3d 60 49 95 3d
       0.0402686 -0.13136546 0.10046959 0.07289386
000140 4b 76 91 be e4 fd 68 bd 98 ca f0 3d 7e b7 26 3e
       -0.28410563 -0.056882754 0.11757392 0.16280934
000150 9d 0e 74 bd f6 90 65 3d 26 e9 8a bd c5 c4 83 be
       -0.05958425 0.05604645 -0.06782751 -0.2573606
000160 ce b3 5c 3e d0 68 26 3e d2 29 46 3e fb aa 9d 3e
       0.21552965 0.1625092 0.1935189 0.3079451
000170 ac 0e 21 bc 74 bc 96 3d 30 3d fa bc 67 03 28 3e
       -0.009830158 0.07360163 -0.030546755 0.16407548
000180 c8 0a 01 3e 85 56 9c be 71 3c ca bd b8 28 2c bd
       0.12601769 -0.3053476 -0.098748095 -0.04203102
000190 7a b9 3f be 22 38 f4 bd eb ce 60 bb 9b 30 b1 3c
       -0.18723097 -0.11924769 -0.003430302 0.021629622
0001a0 1e c1 d7 bd f4 3a be 3d 55 d1 69 be 6e 08 7f 3d
       -0.10534881 0.09288588 -0.2283376 0.0622639
0001b0 40 61 42 3d 6c 69 54 3d 25 1e 6d bd d1 9f 6a 3e
       0.047456026 0.05185835 -0.057890076 0.22912528
0001c0 bd c5 da bb 39 8f 6a be 76 1c 40 3d cc 20 47 3e
       -0.0066764043 -0.22906198 0.046902142 0.19446105
0001d0 30 92 79 3d dd 81 50 be c6 2f a1 ba 09 9c 41 3d
       0.06093043 -0.20362039 -0.0012297563 0.047267947
0001e0 79 e1 8e ba d9 68 3b be 13 e8 b6 3e bf 8e 0a 3e
       -0.0010900936 -0.18301715 0.35723934 0.13531016
0001f0 8e 12 59 3d 83 e2 af ba 59 da 7a 3d c8 86 00 be
       0.05299621 -0.0013418946 0.06124339 -0.12551415

fc2.weight f4 [64, 128]
000000 95 9f a7 bd 13 5b 65 3d 05 0f a3 3d 7f 78 1a bd
       -0.08184735 0.05599506 0.07961849 -0.03771257
000010 9d 80 2d 3d ce bb 17 3d e4 dc d4 3c 1d 35 67 3c
       0.042358983 0.03704434 0.025984235 0.014111784
000020 75 63 28 bd 03 83 05 bd f9 93 35 3d ef b6 7f bd
       -0.041110475 -0.032595646 0.04433057 -0.06243032
000030 61 66 6f 3d 71 05 44 3d 01 90 82 bd c4 5f 3c bd
       0.058447246 0.04785675 -0.06375123 -0.045989767
000040 9c b6 82 bc f5 ce 00 3d 0d df 41 bd ad 50 69 bd
       -0.015956216 0.03144737 -0.04733186 -0.056961704
000050 de fd 95 bc 59 be 06 bd fc 36 aa bc b1 27 43 3d
       -0.01830953 -0.032896373 -0.020778172 0.047645275
000060 fb 3e cc bd 3b 27 6b bd f9 5b 81 3c 66 24 b2 3c
       -0.0997295 -0.05741046 0.015790926 0.021745872
000070 6f ba f8 3b 78 8b e6 3c e9 49 61 bd ed 51 82 bd
       0.007590584 0.028142676 -0.055002127 -0.06363282
000080 eb 89 48 bd 08 cb e3 3c f9 c8 37 bd 6a d2 89 3d
       -0.048959654 0.027806774 -0.044869397 0.067295864
000090 18 a3 56 bd 7c 13 a5 3c 6c ed 9e bd 3c 35 3b bd
       -0.052401632 0.020150892 -0.077601284 -0.045705065
0000a0 02 ea 8b bd 5a 36 87 ba 99 93 b6 bd 25 35 a4 bd
       -0.06831743 -0.0010315881 -0.08914871 -0.08017949
0000b0 b8 7b a9 bd 3c e7 f1 bb 2e 77 7e 3d 34 49 cf bc
       -0.082755506 -0.0073823016 0.062125377 -0.02530346
0000c0 2d 21 0d bd 15 b4 06 3d f0 ae a5 bd 5d c0 81 3d
       -0.034455467 0.032886583 -0.08090007 0.063355185
0000d0 05 0c 89 bc e9 be a1 bd c0 78 be bc 75 c1 81 3c
       -0.016729364 -0.07897741 -0.023250937 0.015839318
0000e0 17 d4 b0 bd b0 0e 49 3d 18 90 14 bd 4b 26 6f bd
       -0.08634203 0.049086273 -0.03627023 -0.05838613
0000f0 5f 90 57 bd 9f 4e 69 bd 61 97 f1 3c c5 7e 5e bd
       -0.052627917 -0.056959745 0.029491128 -0.054320116
000100 e2 07 c3 bd 39 f6 db 3c 7e d7 43 3d 85 5d 09 bc
       -0.09522988 0.026850807 0.04781293 -0.008384113
000110 14 a5 43 bd 9c b1 e0 bc e0 9b 2c bd 67 9b 0c 3d
       -0.047764853 -0.02742844 -0.04214084 0.03432789
000120 f3 e0 26 bd e4 54 50 bb 4a de 30 3d 93 24 08 bd
       -0.040741872 -0.003178888 0.04318074 -0.033238005
000130 e6 b4 9b bc dd ad 33 bd 16 48 7a 3d f7 92 b7 3a
       -0.019007158 -0.04386698 0.061103903 0.0014005591
000140 41 02 a1 bd 32 a1 7a 3c f3 c5 d5 3c 14 c0 00 3d
       -0.07861758 0.015297221 0.026095366 0.03143318
000150 e4 c6 96 bd 2b 62 e1 bc 16 e3 90 3d 3f b3 7e 3c
       -0.07362154 -0.02751263 0.07074563 0.015545665
000160 2a 7f 92 3d 92 79 a9 bd a2 80 91 bd 0e 0a 8a bc
       0.07153161 -0.08275141 -0.07104613 -0.016850498
000170 cb 99 b9 bd c9 22 37 3d 9b a3 91 3d 58 34 cf 3b
       -0.09062537 0.044710908 0.071112834 0.0063233785
000180 69 4d 1e 3c f9 ea 69 bd e5 ce a2 bd 31 8c 64 3d
       0.009662011 -0.057108853 -0.07949618 0.05579776
000190 d0 29 67 3c 56 1b 02 3c 90 4c f5 bc 14 64 09 bd
       0.01410909 0.007941088 -0.029943734 -0.033542708
0001a0 a6 cd 8f ba 11 e0 3d bd aa ba 91 bd 88 15 a5 3d
       -0.0010971322 -0.046356265 -0.071156815 0.080607474
0001b0 ca 33 31 bd 68 35 0d 3d 38 77 b1 bd 1c 1c 0c bc
       -0.04326228 0.03447476 -0.08665317 -0.008551624
0001c0 15 0c 24 bd 78 ac a0 bc 69 0c e9 bd 20 ca 93 3c
       -0.040050585 -0.01961349 -0.1137932 0.018040717
0001d0 93 59 0f bd 29 22 57 bd 35 aa 3e bc 86 06 3b 3d
       -0.034997534 -0.052522812 -0.01163726 0.045660518
0001e0 28 38 ad bc 7f 50 2c bd aa 1f 50 bd e3 1c 33 3d
       -0.021144941 -0.042068955 -0.050811447 0.04372872
0001f0 ef ed 49 bd a6 0d 11 3d eb a8 8e 3d 32 28 13 bd
       -0.049299177 0.035413407 0.06965812 -0.035927005
000200 aa 37 48 bd f8 7c c3 bd 19 da 19 bc 19 58 66 3d
       -0.04888121 -0.0954532 -0.009390377 0.05623636
000210 10 43 26 bc 38 07 00 bd 16 85 dd bd ca d4 3f be
       -0.010147825 -0.031256884 -0.108164 -0.18733516
000220 28 b9 7a bd 01 03 b3 bc 56 99 ca bd b4 96 3a be
       -0.061211735 -0.021852018 -0.09892528 -0.18221551
000230 96 ec 0b bd de c6 f0 bc e4 c9 57 bd 52 fc 5a bd
       -0.034161173 -0.029391702 -0.052682772 -0.053463288
000240 38 5a 48 bd d6 05 0b bd 2a fb 0a 3c c6 8f e6 ba
       -0.048914164 -0.033941112 0.008482734 -0.0017590455
000250 25 6a 30 bd 3d db 8f 3b 76 71 62 3d 0c 7d 7c bd
       -0.043069977 0.004390149 0.055283986 -0.06164269
000260 e8 26 ff bb da 12 3b 3d af 28 8d bd eb 75 f8 3c
       -0.0077866204 0.045672275 -0.068925254 0.030329665
000270 60 0e 21 be f0 e9 db bd 8a 85 8a 3c 99 ba 5c bd
       -0.1572814 -0.107379794 0.01690938 -0.05388889
000280 38 06 0c 3d f3 09 d9 3b a9 ab 94 bc 3e 5f 53 3a
       0.03418562 0.0066235005 -0.01814826 0.00080632034
000290 1f 3b 91 3a 40 d4 86 bd 82 da a4 3c 58 98 b7 3c
       0.0011080242 -0.06583452 0.020123724 0.02241151
0002a0 e4 41 84 bd 81 f4 25 be 5a 19 c7 bb 68 32 81 3d
       -0.0645788 -0.16206552 -0.00607602 0.06308442
0002b0 92 e6 89 bd cf 4c d8 bc bb 46 a6 3d 49 92 01 3c
       -0.06733431 -0.026403813 0.081189595 0.007908412
0002c0 b6 60 0e be b5 14 88 bd 02 52 6c 3d 3f 18 f6 bc
       -0.1390408 -0.066445746 0.057695396 -0.030040858
0002d0 64 c0 84 bd 71 68 03 be 5f bb 15 bd a9 ad 1c bb
       -0.06482008 -0.1283281 -0.036555644 -0.002390722
0002e0 e2 13 b1 3b 33 be 05 3d fc c3 45 3d 8e 15 54 bc
       0.0054039815 0.03265209 0.04828261 -0.012944592
0002f0 d0 97 fa bd cb c3 d5 bc 98 13 7b bd 93 bd 10 3c
       -0.12235987 -0.026094338 -0.061297983 0.0088342605
000300 14 11 a9 3d cf d8 84 3c 31 61 a0 3d 63 f1 84 3c
       0.082552105 0.016216664 0.07831038 0.016228383
000310 6a c4 f7 bd 38 0d 2a 3c f0 10 57 3d 6a 51 68 bd
       -0.1209801 0.010379128 0.052506387 -0.056718268
000320 03 ae 69 3c f2 e1 28 be 93 87 df bc bf 99 d4 bd
       0.014262679 -0.16492441 -0.027286327 -0.10380887
000330 a8 62 f3 bd 5c 4e 9a 3c e3 6d 5f bc ef 4e d9 bd
       -0.118840516 0.018836193 -0.013637039 -0.106107585
000340 b2 08 78 3d e2 4e 04 bd 3b 2b 6a be 40 92 2c bb
       0.060555167 -0.03230179 -0.22868054 -0.002633229
000350 04 73 9d 3d b5 86 7e 3b 0a f7 69 bd 39 b8 86 bd
       0.07687953 0.0038837616 -0.05712036 -0.065781064
000360 44 9c 12 bd 82 5e 0b be 52 b1 67 bd 1b 58 a9 bd
       -0.035793558 -0.1361027 -0.05656559 -0.08268758
000370 0f bd b6 bd af 09 56 3d 64 d2 b4 bc ff da 19 be
       -0.08922779 0.05225533 -0.022072978 -0.15024947
000380 ce 26 17 be 6a 6c 77 3d 12 cd 7b 3d 44 b9 d4 bd
       -0.14760897 0.060406126 0.061474867 -0.10386899
000390 21 d1 2c bd 0a 20 13 be 4a cb a8 bd ae 8a c6 bd
       -0.04219163 -0.1436769 -0.08241899 -0.0969442
0003a0 61 41 07 3d bc d0 b0 bd ff 22 f4 bd da 88 1c be
       0.033021335 -0.08633563 -0.119207375 -0.1528658
0003b0 d2 48 32 bb 25 30 ed bd ee 5f 3e 3d a9 23 d2 bd
       -0.0027204049 -0.115814485 0.046478204 -0.10260708
0003c0 c4 df 3d 39 da a9 0a 3d 93 ef 25 be e8 52 30 be
       0.00018107804 0.03385339 -0.16204672 -0.17219126
0003d0 5f 77 b2 bd 88 d8 eb 3c c4 03 54 3a d6 2c 32 bc
       -0.087141745 0.028789774 0.00080877193 -0.0108749475
0003e0 6a cb ef bd a2 a7 3a be 31 ec 75 bd 5a d6 ac bc
       -0.1170872 -0.1822801 -0.060039703 -0.021098305
0003f0 93 bc 45 bd cf b2 11 bd 19 d2 00 be 40 80 6f bd
       -0.04827554 -0.035570916 -0.12580146 -0.058471918

fc2.bias f4 [64]
000000 ab d8 b5 bd aa ca bd bc 23 59 ad 3d 07 9f f0 3d
       -0.08879217 -0.023167927 0.08464267 0.11749082
000010 fb 44 02 bc 10 d1 94 bc 8f fe 7e 3d 3c 23 8e 3d
       -0.007951017 -0.018166095 0.062254485 0.06940314
000020 66 d5 dd bd 93 80 92 3b d4 9a dc 3d 45 80 c9 bd
       -0.10831718 0.0044708936 0.107717186 -0.098389186
000030 b8 4b 90 3d 2d 50 90 bd 29 ea bd 3c 59 39 87 bc
       0.07045692 -0.07046542 0.023182945 -0.016506838
000040 09 cc eb bd f7 55 b4 3c 8a 34 01 bd fd ed 0c 3d
       -0.11513526 0.022013647 -0.031544246 0.03440665
000050 d5 97 ae ba fe 74 85 3d 33 45 02 3e 95 08 6c 3c
       -0.0013320396 0.06516455 0.1272171 0.014406343
000060 5f 7a a3 3c 10 b7 87 3d 1d ac b5 bc 10 df 72 3d
       0.019955812 0.06626713 -0.022176797 0.05929476
000070 1e f1 b6 3b 59 95 0a 3e b1 c8 c7 3d e8 78 85 bc
       0.0055829426 0.13533534 0.09755076 -0.016293004
000080 7c 68 43 bd 18 8c ae 3d df 16 f0 bc 1d c3 8b 3d
       -0.047707066 0.085228145 -0.02930778 0.06824324
000090 d9 5c 80 3b fc 4a e9 3a a9 c7 48 3d 0e 4d f7 3d
       0.0039173183 0.0017798836 0.049018536 0.12075244
0000a0 03 c6 03 3e 1b 3a 91 3d 26 58 1d bd 85 9b 89 3d
       0.12868504 0.07091161 -0.038414143 0.06719116
0000b0 3a ce 0b bd c4 c3 bd 3c 8d 7b 6e 3c 47 1e 95 bd
       -0.03413222 0.023164637 0.014555824 -0.072811656
0000c0 1d 06 b0 3d 59 6c 85 bd c1 e8 0b 3a 28 3a d3 bd
       0.08594916 -0.06514806 0.0005337112 -0.10313827
0000d0 0f 5b 6c 3b f3 e9 38 bd ac dd 8c 3d 45 be df bc
       0.0036065017 -0.045144986 0.06878218 -0.027312407
0000e0 ac 38 57 3d 2f 50 07 3d c0 e2 a6 3d 98 ee 03 3d
       0.05254428 0.033035453 0.08148718 0.032209963
0000f0 c5 24 f6 3d cf 4a 6c 3b 01 5a 8a 3c c2 80 8b 3c
       0.12018732 0.0036055332 0.01688862 0.01702917

fc3.weight f4 [1, 64]
000000 d6 dc 91 3d ff 8c 4a 3d a0 83 d6 3e 77 1d 00 be
       0.07122199 0.04945087 0.41897297 -0.1251124
000010 ca b3 89 3c ea 9c ad 3d 68 76 93 be ed 63 81 be
       0.016809363 0.084771946 -0.28801274 -0.2527155
000020 f3 e9 b8 bd e8 24 b8 bd 62 f3 4d be 5c ff d6 3d
       -0.09028997 -0.08991414 -0.20112374 0.10497925
000030 13 3d f5 bd 84 8f 24 3d 1e be c0 be 91 e0 0f be
       -0.119745396 0.04017593 -0.37645048 -0.14050509
000040 b1 02 8a 3e 69 e5 2b 3e 3e 8f 94 be cb dc 50 3d
       0.26955178 0.16786732 -0.29015535 0.050991815
000050 d6 08 9c 3e 97 08 b7 be 13 1f 2e be 2e 81 53 3c
       0.3047549 -0.3574874 -0.17004041 0.012909217
000060 5a df 23 3d 19 11 a3 3e 00 d8 57 be de 06 3c be
       0.040007927 0.31848982 -0.21078491 -0.18361995
000070 c3 26 9e be c9 02 29 be aa 79 1e be a2 0d 03 3c
       -0.30888948 -0.16504969 -0.15476099 0.007998856
000080 e6 6b bf 3e 94 f9 21 be 91 63 cf 3d 1d 7c 8f 3d
       0.37387007 -0.15817863 0.10126413 0.070060946
000090 02 32 dd bd 4d 82 a4 be 91 ac e7 3e 5d d9 40 be
       -0.10800554 -0.32130662 0.45248845 -0.18832918
0000a0 93 2f 7f be a0 67 e6 bd f9 2e 6a 3c bd 01 c0 3d
       -0.24920492 -0.11250234 0.014293426 0.093753316
0000b0 72 01 93 be c1 63 35 be 06 fe a4 3d a1 c4 2b bb
       -0.2871204 -0.17713834 0.080562636 -0.002620973
0000c0 06 30 a7 3e 96 7f 3f 3e 79 b9 97 3d cf a5 70 bc
       0.32653826 0.18701014 0.07408423 -0.014687969
0000d0 74 89 50 be 34 65 f1 3b 38 7d 85 be 42 de 53 3d
       -0.20364934 0.0073668007 -0.26072097 0.051725633
0000e0 c1 02 90 3e 0c df 03 be 51 33 65 be 39 2b 50 be
       0.281271 -0.12878054 -0.22382857 -0.20328988
0000f0 30 7d 1d be a2 af 33 3d fd d9 46 be 93 eb a8 3d
       -0.15379786 0.04386867 -0.19419093 0.08248057
