CS273A/Project/models/simple_nn_model.pth (torch, 42648 bytes, 5 tensors)

fc1.weight f4 [128, 12]
00000000: 23e2 2dbc aeeb f23c 3a7b 0a3e 4d6b 36bf
00000010: 57b4 d6bd 187b b13c bd65 5c3e 795f 37be
00000020: f48f 153e e040 1fbe 43da 0dbf b47a 4fbe
00000030: 532b 643d a0c8 293e 01ba 0d3e 6f5e 9cbe
00000040: 7f55 c1be 2f09 cbbe ef15 b73e 7528 50be
00000050: bf19 dd3d 18e3 8a3e 1f8d eebd 28d3 8bbe
00000060: 9b1e dcbe 6630 45bd e0cd 993d cc3e fabe
00000070: f5f0 063e 298c 3a3d 41f5 49bc 6bdd 8abe
00000080: 7dbe 4e3d fca4 4cbe ad42 bdbd ec60 b23e
00000090: c3df 91be 5b36 3dbe 9399 0e3e 14da 7fbe
000000a0: 8a57 9dbe 76e8 12be b55a 96bd 02ab 4d3e
000000b0: 0a07 8e3e 167e ee3e 1316 b2be f294 a5be
000000c0: 70bd 383d 02e6 04be 83db 3bbd 83a0 a7be
000000d0: c936 95be 9589 4a3e 288e 0b3b 9d76 87be
000000e0: ce80 a73d 96e3 293e b265 c2be b801 483e
000000f0: 2403 90be 9134 c6be 3a98 dc3d 2f9a 42be
00000100: e1ca 67bd 4b7b eb3d 044b 2abd 8c21 6bbe
00000110: 9d9d 6bbe 0573 19be b265 0abf 9839 03be
00000120: 0372 b83c cfbd f5bd 02db 8f3d 6d1c 98bd
00000130: d2ef 40be 623b 6e3d 9870 c03d af25 7bbe
00000140: 6c00 073e f438 4dbe 9b52 16bf 7230 17bd
00000150: 12cd f2be 3f09 2abe f46a 38be 875c 883e
00000160: 9dc8 6e3e ea0a 4e3e a09c c8bd 08f6 25be
00000170: 1ab9 5ebc 6e71 10be 8f41 c6be fce1 b4bd
00000180: 6a1c 80be 8455 5abe 63a4 ee3d 0cbf 9bbd
00000190: b636 e6be f9a9 5f3e f0ca 7ebe b1ec adbe
000001a0: 6b5f b9be 493c 0c3f 3d6e cf3e 0e85 ecbd
000001b0: 0c8c 0cbf 13f4 a03d 0349 c93d a1b3 30bf
000001c0: fcd6 5b3e 7b88 97bc f381 30bd 6651 16be
000001d0: 0036 6c3e 3f0b 06bf 019b 4bbe c2ea 943a
000001e0: 9704 b83e a08a 13be 1987 213e 09c9 c3bd
000001f0: a563 c0be 7601 b0be b3bf 7d3e 092b b1bd
00000200: 1c52 96be 0438 6ebe 45c4 4d3e e3f0 15be
00000210: c415 b03e 1ecd 873e 7265 763b 91a2 0a3f
00000220: 97c0 23be e102 10be 207e ba3e 53b3 8c3d
00000230: 9674 ac3d fea6 a33e 85d9 913d 4527 41be
00000240: 7400 c7be 8337 f2bd 576a ad3d 93ac ae3d
00000250: b957 69be e85e 05be 83d2 2fbd 80b7 4fbe
00000260: 9191 99be 0d48 77be 303a 9bbe 1bd0 7fbe
00000270: 9e59 0b3e 6d87 9cbd 8ed8 f43c 0d8b 9c3c
00000280: 7792 38bf 5366 c9be cab0 443d 1450 0d3e
00000290: c274 ce3c f0a5 673d 4b17 8dbe ef70 9cbc
000002a0: 8e32 d3be 5b73 5a3d e345 92be bf94 243e
000002b0: 40a4 3a3e 7667 163e f3d0 8cbd 0c5d 46bd
000002c0: 6f78 9fbe 7d98 89be dc48 9abe d8b9 1f3e
000002d0: 7e65 3abe 266f 97bc 9a0a 14bc bc9d e3be
000002e0: 5e70 aabe acd4 19bb fd9f 97bd 1fbb c13e
000002f0: 9083 c5bd 4b27 143e b5e0 1cbf 09d6 6cbe
00000300: 9220 5a3e 15da 9cbc 9bf1 a9be ee4e 283e
00000310: 9185 5abe 15dd c63c 5026 5b3d 9e7a 18be
00000320: 1773 a53e 0aa3 5e3e a5ac 87bd d961 773e
00000330: 37bf c53e 2891 123e 1ec1 c33d 3007 cabb
00000340: afcd d4be 7eb3 a1be ea21 1c3e 059e 393d
00000350: 74fb b1be 8ad4 53be 1f2c fe3d 65e3 72be
00000360: fa6e aebe 66f9 8dbd 9400 2bbc 830f 2fbe
00000370: 5799 91be ffbf ff3d 5012 86be 1ade b5bd
00000380: 925e 4c3d f470 7a3c 0efa 0fbd 8a19 3f3e
00000390: f50d d7bd d50d 873d 3102 25be 8de2 053d
000003a0: 825b ccbb d93f 36be eb9f 7d3d 532e d3bc
000003b0: 50aa 1bbe db05 80be c3d1 c0bd 5a55 01be
000003c0: fe4a 14bf d65a f9bd 23df a73d bca9 65be
000003d0: 5e1a 7b3e 9ffb 203c 63fa 9a3b 9ed5 21be
000003e0: 4877 f6bd cc36 753d c24f 26be 3ba0 44be
000003f0: d05d 843d 4b4f 673e 9026 dfbc f4e9 f03e
-0.010612997 0.029653396 0.1352357 -0.7125748 -0.10483616 0.021665141 0.21523185 -0.17907514
0.14605695 -0.15552092 -0.55411166 -0.20261651 0.05570538 0.16580439 0.13840486 -0.30540797
-0.3776054 -0.39655444 0.35758922 -0.20327933 0.10795926 0.27126384 -0.116480105 -0.27309537
-0.429921 -0.04814186 0.07509971 -0.48876035 0.13177855 0.045543823 -0.0123265395 -0.27122054
0.050474633 -0.19984812 -0.09241233 0.3483957 -0.2849103 -0.18477766 0.13925771 -0.24985534
-0.3073085 -0.1434649 -0.0734152 0.20084766 0.27739745 0.4658057 -0.34782466 -0.323402
0.045102537 -0.12978366 -0.04586364 -0.32739648 -0.2914336 0.19779046 0.0021294449 -0.26457682
0.081788644 0.16590723 -0.37968212 0.19531906 -0.28127396 -0.3871198 0.107712224 -0.19004129
-0.056589965 0.11498126 -0.041575447 -0.22962016 -0.23009343 -0.14985283 -0.54061425 -0.12814939
0.022515303 -0.11999094 0.07024194 -0.07427297 -0.18841484 0.0581621 0.093964756 -0.24526094
0.13183755 -0.20041257 -0.58719796 -0.036911435 -0.4742208 -0.1660509 -0.1800955 0.26633093
0.23318715 0.20121351 -0.09795499 -0.16207135 -0.013593936 -0.1410577 -0.38721892 -0.088321656
-0.25021678 -0.21321684 0.11652448 -0.07604799 -0.44963616 0.21842183 -0.24882102 -0.33969644
-0.3620561 0.5477949 0.40513793 -0.11548816 -0.54901195 0.078590535 0.09828379 -0.6902409
0.21468729 -0.018497696 -0.04309268 -0.14679489 0.23067474 -0.5236091 -0.19883348 0.0011361467
0.35941002 -0.1440835 0.15774192 -0.09559829 -0.37576023 -0.34376115 0.24780159 -0.086507864
-0.2935952 -0.23263556 0.20094402 -0.14642672 0.34391606 0.2652368 0.0037597087 0.54154307
-0.15991436 -0.14063598 0.3642435 0.06870141 0.084206745 0.31963342 0.07121567 -0.18862636
-0.38867533 -0.11826994 0.08467548 0.0852901 -0.2278737 -0.13024485 -0.04292537 -0.20284843
-0.2999387 -0.24148579 -0.3031783 -0.2498173 0.13608405 -0.07643018 0.029888418 0.019109273
-0.7209849 -0.3933588 0.04802016 0.13800079 0.025202159 0.056554735 -0.27556834 -0.01909682
-0.41249508 0.053332668 -0.28568944 0.16072367 0.18226719 0.14687905 -0.068757914 -0.04842858
-0.3114657 -0.26874152 -0.30133712 0.15598238 -0.18202779 -0.018485617 -0.009035731 -0.4445628
-0.33288854 -0.002347271 -0.07403562 0.37838075 -0.09644234 0.14468114 -0.61280376 -0.23128523
0.21301487 -0.019146958 -0.33192143 0.1643636 -0.21340014 0.024275342 0.053503335 -0.14890525
0.3231437 0.21741882 -0.06624726 0.2415842 0.38622448 0.14313185 0.095583186 -0.0061654076
-0.41563174 -0.31582254 0.15247312 0.045316715 -0.34762156 -0.20686546 0.12410759 -0.23719557
-0.34069043 -0.069323346 -0.01043715 -0.17095761 -0.28437302 0.12487792 -0.26185846 -0.08880253
0.049894877 0.015285719 -0.03515058 0.18662086 -0.10500709 0.06594435 -0.16114117 0.03268676
-0.0062364945 -0.17797793 0.061920088 -0.025778925 -0.15201688 -0.25004467 -0.09415009 -0.12630215
-0.5792693 -0.12175529 0.08196857 -0.2242803 0.24521777 0.009825616 0.0047295555 -0.15804145
-0.1203447 0.05986671 -0.16241363 -0.19201748 0.06463206 0.22588842 -0.027240068 0.47053492

fc1.bias f4 [128]
00000000: 00ed ca3e 3652 c9bd 4c3b 8c3d d4e5 963e
00000010: 3be0 133e 87eb b5bd fcdd 86bd 6bdd 5b3c
00000020: f3bb ed3d 37ba a93e 476c 473d c40e 72be
00000030: 6b04 d03d b74f ab3e ef04 fa3d b27c 543e
00000040: 3f83 9a3e e7e0 293e 4c1e 41be a001 783e
00000050: 6030 af3e 81cc 89be 4f16 a8bd 2045 bb3e
00000060: 9134 04be 2ce1 4fbe aad6 5abe 0bdf c0be
00000070: fb12 b2be 7e0b 7d3e 1378 97be b37f 9dbe
00000080: 6aef c8bd f645 8bbd 76ea c0be 12b1 40be
00000090: 4178 6b3d 0efc 8a3e 9c05 113e caae 25be
000000a0: 5100 18be 0a3a 5b3c e4d4 8f3e e8e7 873e
000000b0: 408f 1cbd 5b72 113f e53b 293e 975b c23e
000000c0: 3deb efbe 140d 0f3e cacf 3f3b 07bb f0be
000000d0: 061d 28be ec9a 6b3d 15ff 773e 09e3 c8be
000000e0: 364b 43be 8f51 86be 6200 733d b767 25be
000000f0: b409 9abd 2ed7 cd3e 2a0f 093e fbc5 c63c
00000100: ad66 1bbe 92e0 73bd fca6 373d 7e5b 7d3e
00000110: b716 d33d 63cc 473e 1666 b43e 552f a7bd
00000120: b2e3 e2be d3eb e83c 4c0c fe3e 31a1 16bc
00000130: ee32 d73e 33ae 8f3d 13f7 6dbe d217 0fbe
00000140: 6e78 913d b370 fc3e c4e6 7abe d4a9 e63e
00000150: 97a6 27be 599d b53d 61da a6bd 5b30 98bd
00000160: 0f80 fc3e 403f 063e 67b5 6ebe b79a b33e
00000170: 9edb bd3e 662a 043d fe05 0c3e 0715 4fbd
00000180: db11 2c3e 9bee 40be 44d3 1b3e 0980 cc3e
00000190: b900 813e 7364 62be 3183 9abe 90d5 b33e
000001a0: 304e c23d 0fe1 233e 8461 26be 350e 663d
000001b0: b5ea 8f3e a55c c7bd 69ab 0abf 1425 8bbe
000001c0: 071c 783e dac8 223e f89d 673e 1963 653e
000001d0: 772b 303c a3fd 6dbd 12dc 713d ec0f ca3d
000001e0: cfd1 b03c 855d ddbe 6c86 053f 5319 2a3e
000001f0: 4c91 833e f01f 54bd 3eac 773d 1778 20be
0.39633942 -0.098301336 0.068472475 0.2947222 0.14441006 -0.08882814 -0.06585309 0.013419489
0.11608114 0.33149883 0.048687246 -0.23638445 0.10157093 0.33459255 0.12207972 0.20750692
0.30178258 0.165897 -0.18859214 0.2421937 0.34216595 -0.26913837 -0.0820738 0.36576176
-0.12910677 -0.2030074 -0.2137095 -0.37670168 -0.34780106 0.24711415 -0.29583797 -0.3076149
-0.098112896 -0.06800453 -0.3767888 -0.18817547 0.05748773 0.27145427 0.14162296 -0.16179958
-0.1484387 0.013380537 0.2809211 0.26544118 -0.03822255 0.5681512 0.16526754 0.37960503
-0.4685916 0.13969833 0.002926814 -0.4701769 -0.16417322 0.057520792 0.242184 -0.39235714
-0.1907166 -0.262341 0.059326537 -0.16152845 -0.07521382 0.40203232 0.13384691 0.024264326
-0.15175886 -0.05954034 0.044836983 0.24741933 0.10307067 0.19511561 0.35234135 -0.08163325
-0.44314343 0.028432762 0.49618757 -0.009193704 0.42031044 0.07015648 -0.23238783 -0.1397393
0.07103048 0.49304733 -0.24502093 0.45051444 -0.16372143 0.08867902 -0.08147121 -0.07431098
0.4931645 0.13110065 -0.23311387 0.35078976 0.37081617 0.032266997 0.13674161 -0.050557163
0.16803686 -0.18841021 0.1521731 0.39941433 0.25195864 -0.22108631 -0.30178216 0.35123873
0.09487569 0.16003822 -0.16248137 0.056165893 0.28108755 -0.097344674 -0.541678 -0.27176726
0.24229442 0.15896931 0.22618854 0.22401084 0.01075255 -0.058103215 0.059047766 0.09866318
0.02158442 -0.43235412 0.52158237 0.16611223 0.2569679 -0.05178827 0.060466997 -0.1567081

fc2.weight f4 [64, 128]
00000000: c350 cebd 763a 07be e2ea 9e3d fe00 cdbb
00000010: 4763 04be 0e9c 84bd b4d1 013c f895 95bc
00000020: 84ee 993b c195 e9bd c352 9ebd 5872 c73c
00000030: 72fc b8bd 1af5 bebb 2968 38bb b63d 26be
00000040: b0e6 fbbd c646 a13d c268 11bb 39b7 9cbd
00000050: c6f7 dd3d e55c 633e f63e 563c fcce 123c
00000060: c6c3 88bd 3cd3 a73d e3a4 f73d f14f cd3d
00000070: 8872 a13d e77b 1b3d 8176 ad3d 29cf 133d
00000080: 59ae 08bd 2470 b03c c075 e93d a0f8 5b3d
00000090: d58d 9c3d d8d9 b0bd eef8 90b9 f6dd 573d
000000a0: 3250 ca3d 5499 95bc f0d3 2a3c 4cb6 9c3d
000000b0: afe1 043d 7d27 bbbe 170b 2bbe f1fb 883d
000000c0: 11eb 1d3e e543 0c3e 9f68 4abe d6ef ce3d
000000d0: 9591 033d f8df dc3d dcfd 90bd 5a9a c73d
000000e0: a45a a9be c4c0 923d 8dce 4dbe 9a87 5f3d
000000f0: 809b 23bd ac77 b1be d663 323d 07b2 c83d
00000100: 64f3 fc3d f618 5a3e 992a 3ebd c5da 003e
00000110: 0a8f 74bd 6a8b 23be 5228 45be 39a7 483d
00000120: aaf9 443e a1ec 0dbe b3c2 f2bd 5259 173d
00000130: d84b 28be 1159 123e d704 f4bc 1880 353d
00000140: 2648 8b3d 339a 98bd 2358 1e3e f54a c6bd
00000150: c441 b6be 775b fcbd a945 a93c 6bb3 193d
00000160: 6efc 29be 5203 3f3d 05ee f53b 8ed8 013d
00000170: a343 643d a017 bf3d c07d c5bc 277b 8c3d
00000180: d6c0 59be d660 80bd effe 72bd 495f d33d
00000190: ea5f 413d 0946 02bd 81bc e33d 1c32 79bd
000001a0: 4611 adbe 1b53 3dbe e15a 67be 9569 b1bc
000001b0: 402e 29bf 5e1f a73d d1e6 e83d 3f88 8ebe
000001c0: a6cf 483d bb32 b6bd 2d38 d5bd 6aa7 4ebc
000001d0: 6a84 123e 31a6 04bc 7c73 26bd 24ba e63d
000001e0: 68ca f43d 92a1 4e3e 1148 72be fa0d 9d3c
000001f0: 60f9 7abd f677 533d d38e 1d3d 0f65 bd3d
00000200: 06d3 25ba 5c32 303e f30a 893d 6230 dd3d
00000210: 9d0d 12be 521c e9bd aec0 acbd 737c e2bc
00000220: c12d c8bc 2fa1 a5bd 3942 a73d 949b a73d
00000230: 0bdb e2bd f8bb 2e3d 70bd 12bd 28da 123e
00000240: 2033 4f3e 3124 173e 5e46 483d 1b73 1c3e
00000250: 0adf 64bd ee7c cc3d 8e50 dbbc 907a d7bd
00000260: f7b3 25bd 807d 4e3d 821f b6bd 178f 18bd
00000270: 140d c43c 17d3 f23d 1ecc f0bc 9221 62bd
00000280: e354 b83d f68e 693d bf00 e83c ec4d 8f3c
00000290: 9af8 d73c fcf6 5cbd e210 6ebd 2105 92bd
000002a0: e822 b33d e4d4 1f3e d856 d3bc 710e 23bd
000002b0: 1f60 3d3d 97ec d73d a884 913d 6eee 643d
000002c0: e56a 573d 96ac 5bbd a55b 7a3e 0ec4 51be
000002d0: b225 e0bb bbb8 38be 1eaf 903d f388 b4bd
000002e0: d298 a2bc 6a78 e33d 9a46 123e cd49 ba3d
000002f0: b957 053e 4504 a23c f4fa c2bd 05b3 96bd
00000300: e65f c7bd 02d2 cb3c a548 7cbb 1345 833d
00000310: d925 83bd 67d2 053e 0c7f 883d 5a2e dd3c
00000320: 1e9d 97bd 697b 723d 1ce4 c83d f5ba b33d
00000330: d803 8ebc 8f0c 103d 6ab6 8ebc e703 3fbd
00000340: eebd 4c3c ecce 853d 8563 09be 81b2 803e
00000350: 5f2a 783d 10dc f23d 20e5 d1bc a4bc e1bc
00000360: 66e8 10be 67e5 5a3e d2dc d8bd 4d86 c53c
00000370: 8c8f 03bd c60c e4bd 9088 78bc 478c 8fbd
00000380: 4b4c 57bd e64b 0c3d b05a a03b eada 23bd
00000390: 9901 16be efc6 3f3d a1dd f6bc f048 2fbe
000003a0: 1058 1c3e 9e29 89bc 5102 7f3d a4be ebbc
000003b0: 7278 903c f1ea c8bd 8ae1 08be 2a52 01bd
000003c0: 45ea 7cbd a039 53bd f8aa bc3e 1baf b8bc
000003d0: 1eed 30be 0faa 03bd 5715 da3b b999 6abd
000003e0: 60a6 7abd 6cb8 2e3e 22b3 64bd 53db 943d
000003f0: 24b8 ecbd 1893 44bc 8853 9f3b 4051 d53c
-0.10073998 -0.13205895 0.07759644 -0.006256222 -0.12928496 -0.064750776 0.007923532 -0.018259987
0.0046976227 -0.114055164 -0.07730629 0.024346516 -0.09032525 -0.005827558 -0.0028138256 -0.16234478
-0.122998595 0.07874827 -0.0022187685 -0.076521344 0.10838275 0.22203405 0.0130765345 0.008960482
-0.06677966 0.08194587 0.120919965 0.10025013 0.07883173 0.03795996 0.084698685 0.036086235
-0.033369396 0.021537848 0.11399412 0.053703904 0.0764424 -0.086353004 -0.00027651287 0.052701913
0.09878577 -0.01826159 0.010426506 0.07651958 0.03244179 -0.36553565 -0.16703449 0.06688679
0.15421702 0.13697775 -0.19766472 0.10104339 0.03212126 0.10784906 -0.0707967 0.09746237
-0.33076966 0.071656734 -0.20098324 0.05457268 -0.03994322 -0.34661615 0.043552242 0.09799581
0.123511106 0.21298584 -0.046427343 0.12583454 -0.059706725 -0.15971151 -0.19253662 0.0489876
0.19235864 -0.13859798 -0.11853542 0.036950417 -0.16435182 0.14291789 -0.029787464 0.044311613
0.068008706 -0.07451286 0.15463309 -0.09682266 -0.3559705 -0.12322133 0.0206631 0.037524622
-0.166002 0.046634026 0.007505181 0.031700663 0.055728566 0.09330678 -0.024107814 0.06859427
-0.21264967 -0.0626847 -0.059325155 0.103209086 0.04721061 -0.031805072 0.11119939 -0.060838804
-0.3380224 -0.18488733 -0.22593261 -0.02165679 -0.66086197 0.0816028 0.1137215 -0.27838323
0.049026154 -0.08896395 -0.10411105 -0.012613157 0.14308324 -0.008096264 -0.04063748 0.11265972
0.119526684 0.20178822 -0.23660304 0.019171704 -0.06127298 0.051628076 0.038466286 0.09247791
-0.00063256954 0.1720671 0.066915415 0.10800244 -0.14263006 -0.11382355 -0.08435188 -0.027647233
-0.02443588 -0.08087384 0.08166928 0.08183971 -0.110769354 0.04265973 -0.035825193 0.14341033
0.20234346 0.147599 0.048895232 0.15278284 -0.05587677 0.09984766 -0.02677181 -0.10521424
-0.04045483 0.050412655 -0.088927284 -0.037245836 0.023932017 0.118566684 -0.029394206 -0.055207796
0.09000566 0.057021104 0.028320668 0.01749321 0.02636366 -0.05394648 -0.05812157 -0.071298845
0.08746892 0.15608555 -0.025798246 -0.039808694 0.046234246 0.10543173 0.0710538 0.055891447
0.052592177 -0.053631388 0.24449022 -0.20484945 -0.006840431 -0.18039219 0.07064651 -0.088151835
-0.019848261 0.111069515 0.14284745 0.09096108 0.13021745 0.019777426 -0.09520522 -0.07358364
-0.09735088 0.024880413 -0.0038495448 0.06409659 -0.06403703 0.13068543 0.06664857 0.026999641
-0.074030146 0.059199724 0.098091334 0.087758936 -0.017335817 0.035168227 -0.017420966 -0.04663458
0.012496455 0.06533608 -0.1341687 0.25136188 0.060587283 0.1185838 -0.02562195 -0.027555771
-0.14151153 0.21376573 -0.10588993 0.024111891 -0.03211932 -0.11135249 -0.015169278 -0.07009178
-0.052562993 0.03425207 0.0048936233 -0.040003695 -0.14649047 0.046820577 -0.030134978 -0.17117667
0.15267968 -0.016743477 0.06225807 -0.028777428 0.017635558 -0.098104365 -0.13367286 -0.0315725
-0.061746854 -0.051568627 0.3684919 -0.022544434 -0.17277953 -0.032144602 0.006655376 -0.057275508
-0.061193824 0.17062539 -0.055834897 0.07268395 -0.115585595 -0.0119979605 0.0048622526 0.02603972

fc2.bias f4 [64]
00000000: 2c41 27be a4f6 d23d 8d64 353d dea2 febd
00000010: 64d9 a53e daae 2d3e d6f1 063c 55e3 103e
00000020: 3efe 853e 8504 4a3d d417 983e eb59 e6bd
00000030: 1888 213d ed70 3e3e a03a 793e 6f9b b1bc
00000040: b429 32bd 0d9e f4bc d67e b63d d2a5 1cbe
00000050: a8b3 003e 6e5c 283e bf8c 783e 7314 733e
00000060: c5a5 7bbd 556a 4e3c 99ff 8fbd 74fc 2dbe
00000070: e0c1 e23c dd3b 84bd aec4 5fbc 5d41 233e
00000080: 63da 423e 8b0a 8b3e cf1c ec3d 2c6b 913e
00000090: 4c04 f1bd f60b 0dbe 4252 8d3e fd03 023e
000000a0: 5e1d d9bd 5656 8dbd 8f65 f2bd 2887 45bd
000000b0: f63b 843c f092 6e3e a2d1 32be cf31 4f3e
000000c0: 24fa 16bd ddb9 8e3e 00e3 07bd 0e8b cdbc
000000d0: 9a8c 683e 65db 633e f2d8 9f3e dcff 243e
000000e0: 3898 b33d dd59 063d c50a 9b3d fb94 8bbd
000000f0: 89ab aab9 8ee9 c9bd d6c4 94bd d096 11bb
-0.16333455 0.10300949 0.044285346 -0.12433408 0.32392418 0.16961232 0.008236369 0.1414922
0.26170534 0.049320716 0.2970568 -0.11247619 0.03943643 0.18597765 0.2433877 -0.021680562
-0.043496802 -0.02986052 0.08910911 -0.1529763 0.12568533 0.16441509 0.2427244 0.2373827
-0.061437387 0.012598594 -0.07031173 -0.16990834 0.027680337 -0.064567305 -0.013657732 0.15942903
0.1902862 0.2715648 0.11528932 0.28402078 -0.11768398 -0.13774094 0.2760182 0.12696834
-0.106013045 -0.06901233 -0.11835777 -0.0482246 0.016141873 0.2329824 -0.17462781 0.20233844
-0.036859646 0.27876177 -0.03317547 -0.02509072 0.22709885 0.22251661 0.31220204 0.16113228
0.08769268 0.032800544 0.075704135 -0.06815525 -0.0003255273 -0.09859 -0.07264106 -0.0022215135

fc3.weight f4 [1, 64]
00000000: 8c99 113e c179 cabc c278 79bd 0e9c 393c
00000010: b956 88bd a021 f2be 1649 c13d 99a0 3cbe
00000020: 3c44 3abe e899 9f3b a35e 6bbd 8254 bd3d
00000030: 9064 d4bc d8ed bfbd 7299 38be e27e 103e
00000040: 8bd6 a43b 080c 5a3d 47a0 f6bc 24ef 603e
00000050: 2c91 e7bd 40f2 4dbd a1f4 8ebd d064 d5bd
00000060: 844a 68bd 5460 c73c fcda d93d abda 8d3e
00000070: ca23 a0ba a225 fe3c eef9 473c 1013 16be
00000080: 2ccb a2be c17f 43be a827 bdba 6ffc 11be
00000090: dcd7 96bd 74c5 073e 86d2 4ebe 2752 fcbd
000000a0: cbb0 123c 6faf 8dbd 1248 da3d 987c c53d
000000b0: 554f a93c d956 43be 4077 383e efc8 cbbd
000000c0: 32ea 563d 701c 83be d893 cc3d 5968 c83d
000000d0: f708 dabd a125 84bd 07ca 3dbe 6e83 bbbd
000000e0: 7dba 0b3e 9b92 0dbc 8ef0 a2bd 62f0 2d3d
000000f0: 999f 8fbd f5fb df3c d002 c6bc df71 16be
0.1421873 -0.02471626 -0.06090618 0.01132871 -0.06657166 -0.4729128 0.09437768 -0.18420638
-0.18190092 0.004870642 -0.0574633 0.09244634 -0.025926858 -0.09371537 -0.18027285 0.14110902
0.0050304583 0.05323413 -0.030105723 0.21966225 -0.11306986 -0.050279856 -0.06980253 -0.10419619
-0.05671169 0.024337925 0.10637471 0.27705893 -0.0012217697 0.031023804 0.012205584 -0.1465571
-0.31795633 -0.19091703 -0.0014431374 -0.14256452 -0.07365391 0.13258916 -0.20197496 -0.12320357
0.008953284 -0.06918227 0.106582776 0.09642905 0.020667711 -0.19076099 0.1801424 -0.099504344
0.05246944 -0.25607634 0.099891365 0.09785528 -0.10646241 -0.0645249 -0.18534099 -0.091559276
0.13645358 -0.0086409105 -0.079560384 0.042465575 -0.07012863 0.027341822 -0.024171263 -0.14691876
