CS273A/Project/models/simple_nn_model.pth (torch, 41624 bytes, 5 tensors)

fc1.weight f4 [128, 10]
-0.224534 -0.17228897 -0.10484159 -0.21813777 -0.09559421 -0.1010938 0.031498373 -0.16165513
0.15759155 -0.10108799 -0.26165265 0.0022301676 -0.10061443 -0.1584433 -0.4008678 0.032999415
-0.38484636 0.17397118 -0.051139366 -0.061377034 -0.013232546 -0.09654188 -0.10026554 -0.055925503
0.41223285 0.00698531 0.27580687 -0.27026948 0.19957139 0.12181155 -0.26095867 0.02821519
-0.1956616 -0.14705396 0.06998997 -0.04473545 -0.14023508 0.26048252 0.22911084 -0.33518994
-0.27245837 0.19070405 -0.12357585 0.23442248 -0.19863021 -0.042213384 0.32839525 -0.2011419
0.016247777 0.33273587 0.12314875 0.18468109 0.24358514 -0.34547946 -0.09001072 -0.22254494
0.1482613 -0.13637172 -0.11139107 0.1197072 -0.39681423 0.20533334 0.08608761 -0.023920547
-0.5414023 -0.20150292 0.026630547 0.25856075 0.034256052 0.24535671 -0.10947555 0.019367257
-0.031754296 0.20780322 -0.036178686 0.11548778 0.5891915 -0.16786075 0.038476415 -0.10846852
-0.06925715 -0.14318548 0.017973445 0.38604134 -0.20520534 0.14251941 0.066538416 0.27349314
0.12718238 0.018644217 0.3014165 0.012622984 0.24776469 -0.31661987 0.4284739 -0.19743453
0.13376665 -0.2972967 -0.004542721 0.24739958 0.396285 0.1082114 -0.2537917 -0.13304657
-0.30071032 0.2543613 0.12372043 -0.02972298 0.16718252 -0.16319087 -0.18000159 -0.12057726
0.2818434 0.28359792 -0.69639665 -0.31184548 0.16955125 -0.00852967 -0.21573623 -0.029797131
0.050799567 0.056761935 0.18784133 -0.30749604 -0.045556657 0.065919206 0.19519804 -0.061442774
0.3574163 0.009938634 0.09447246 -0.25480977 0.08469424 0.066724695 -0.08816569 -0.114784084
0.11595563 -0.18570048 -0.1774115 -0.14819087 0.28447962 -0.049285587 -0.17666805 -0.1423348
-0.19952509 -0.07920426 -0.08690238 0.008933592 -0.1151778 -0.26436096 0.08070254 -0.065447986
0.27596593 -0.30167657 -0.14736661 0.10560158 0.19559023 0.028252788 -0.108182415 -0.37430444
-0.09343238 -0.012451626 -0.22355671 0.17256765 0.21518037 0.006047662 -0.0018990287 0.067881495
0.095719315 -0.43272403 0.14733306 0.26540917 -0.006663933 0.17603895 -0.15367986 0.35295364
0.28559548 0.19502892 -0.36852095 0.15345502 0.0023297067 0.010918385 -0.29379267 -0.020348372
-0.39360943 -0.041676085 0.20614557 -0.013978225 0.2512092 -0.06309686 0.443123 0.052329876
-0.0073122387 -0.120973736 0.0550644 -0.15303907 0.0071470747 -0.07441653 -0.041502703 -0.25222918
-0.36010733 0.14725047 -0.31890592 0.38467142 0.06503453 0.120242275 -0.02303711 0.24194089
0.110366255 -0.46102387 -0.4273695 -0.2241998 0.021264182 0.08177489 -0.012526447 -0.15349664
0.5212244 0.08398591 -0.2514213 -0.4077366 -0.1593036 -0.14582126 0.066948906 0.058019232
0.22613172 0.18309884 -0.098765545 -0.24908404 -0.2686144 -0.16588576 0.06789137 0.1355246
-0.13740751 -0.20815709 0.52050716 0.0392332 -0.06595677 -0.2336077 -0.023110226 0.12760508
-0.4408168 -0.10738531 0.013663639 0.14072044 0.43046662 -0.067129955 0.22496653 0.1515036
0.2769863 -0.26230407 0.2578003 -0.0035252757 -0.35332227 -0.011385478 -0.04506801 0.047637712
00000000: 3eec 65be 856c 30be 30b7 d6bd 825f 5fbe
00000010: e6c6 c3bd 440a cfbd 7004 013d ec88 25be
00000020: ae5f 213e 3807 cfbd 56f7 85be 0128 123b
00000030: f00e cebd f63e 22be 8b3e cdbe 652a 073d
00000040: 950a c5be 8025 323e 8377 51bd 7c66 7bbd
00000050: 52cd 58bc c0b7 c5bd 0558 cdbd 2412 65bd
00000060: 2f10 d33e 07e5 e43b 8f36 8d3e c360 8abe
00000070: 715c 4c3e 5578 f93d 609c 85be 8b23 e73c
00000080: 845b 48be 5095 16be e756 8f3d 853c 37bd
00000090: c999 0fbe f75d 853e 089c 6a3e 049e abbe
000000a0: aa7f 8bbe ec47 433e 5615 fdbd 720c 703e
000000b0: b865 4bbe f1e7 2cbd 6c23 a83e 24f8 4dbe
000000c0: 0f1a 853c 5b5c aa3e 6935 fc3d 0a1d 3d3e
000000d0: 626e 793e afe2 b0be 8a57 b8bd d2e2 63be
000000e0: cfd1 173e 07a5 0bbe 0021 e4bd 0c29 f53d
000000f0: 3c2b cbbe e742 523e b34e b03d 06f5 c3bc
00000100: 5799 0abf c856 4ebe 4e28 da3c 1362 843e
00000110: 1350 0c3d ca3e 7b3e b834 e0bd 15a8 9e3c
00000120: cb10 02bd 5eca 543e 1a30 14bd db84 ec3d
00000130: 41d5 163f b0e3 2bbe 7299 1d3d be24 debd
00000140: b1d6 8dbd 379f 12be 0c3d 933c 36a7 c53e
00000150: 5921 52be 9cf0 113e 4b45 883d 4b07 8c3e
00000160: 193c 023e c2bb 983c 4353 9a3e a2d0 4e3c
00000170: 07b6 7d3e 001c a2be ee60 db3e 472c 4abe
00000180: 20fa 083e 4637 98be 1bdb 94bb 5156 7d3e
00000190: dee5 ca3e f09d dd3d fcf0 81be 5c3d 08be
000001a0: b4f6 99be a53b 823e 2361 fd3d 9b7d f3bc
000001b0: e531 2b3e 821b 27be 5652 38be 36f1 f6bd
000001c0: c74d 903e bf33 913e 0d47 32bf 36aa 9fbe
000001d0: d89e 2d3e 07c0 0bbc f5e9 5cbe 1d19 f4bc
000001e0: 3513 503d 347f 683d 7a59 403e 1f70 9dbe
000001f0: 9e99 3abd a600 873d ffe1 473e 6bab 7bbd
00000200: 45ff b63e a7d5 223c c77a c13d 6d76 82be
00000210: 2c74 ad3d f5a6 883d 3790 b4bd eb13 ebbd
00000220: 257a ed3d 4428 3ebe 5cab 35be 59bf 17be
00000230: 50a7 913e afdf 49bd 78e8 34be 37c0 11be
00000240: 4e50 4cbe d835 a2bd e0f9 b1bd 335e 123c
00000250: 57e2 ebbd 525a 87be 6047 a53d 9809 86bd
00000260: 684b 8d3e 5a75 9abe 46e7 16be a445 d83d
00000270: ce48 483e 6472 e73c be8e ddbd d5a4 bfbe
00000280: 7a59 bfbd e801 4cbc 0dec 64be 93b5 303e
00000290: 3e58 5c3e 772b c63b d4e8 f8ba 7405 8b3d
000002a0: 7d08 c43d 018e ddbe 7ade 163e b6e3 873e
000002b0: 1f5d dabb 8e43 343e 415e 1dbe 57b6 b43e
000002c0: 9239 923e a9b5 473e c7ae bcbe 5023 1d3e
000002d0: fead 183b 07e3 323c fe6b 96be a1b1 a6bc
000002e0: 2d87 c9be 8bb4 2abd d317 533e ed04 65bc
000002f0: 7e9e 803e ed38 81bd 05e1 e23e da57 563d
00000300: 819b efbb 14c1 f7bd 358b 613d 46b6 1cbe
00000310: 0232 ea3b b267 98bd bdfe 29bd 2f24 81be
00000320: fd5f b8be d4c8 163e a347 a3be a7f3 c43e
00000330: d330 853d 9541 f63d 52b8 bcbc 5abf 773e
00000340: b407 e23d 520b ecbe 2dd0 dabe a294 65be
00000350: 3932 ae3c 9879 a73d ba3b 4dbc 392e 1dbe
00000360: f66e 053f ce00 ac3d 4bba 80be dac2 d0be
00000370: 7c20 23be 2b52 15be 821c 893d 93a5 6d3d
00000380: 138f 673e 437e 3b3e 9745 cabd e30f 7fbe
00000390: d487 89be f5dd 29be a10a 8b3d f6c6 0a3e
000003a0: 8eb4 0cbe 2227 55be f53f 053f feb2 203d
000003b0: 5814 87bd db36 6fbe a851 bdbc e8aa 023e
000003c0: bdb2 e1be d4ec dbbd 75dd 5f3c 0519 103e
000003d0: 1f66 dc3e 6e7b 89bd a05d 663e c223 1b3e
000003e0: 26d1 8d3e b84c 86be 67fe 833e 5008 67bb
000003f0: a8e6 b4be 288a 3abc 3c99 38bd c31f 433d

fc1.bias f4 [128]
-0.008458644 0.28023782 0.039087433 0.26927093 -0.21546414 0.30835873 -0.17809945 -0.37889686
-0.29236695 0.16800183 -0.17813152 -0.1966352 -0.16808882 -0.18118526 -0.1578084 0.36122534
0.041478217 -0.34870994 -0.08164606 0.17389432 -0.02786975 -0.06889081 0.4771093 0.20848075
-0.3011671 0.1983414 -0.25197113 0.3115309 -0.10346608 -0.22412641 -0.13339901 -0.15484409
0.38278946 -0.009014716 0.15730688 -0.1257347 -0.23251727 -0.23716095 0.30419445 0.009802613
0.08896605 0.17912948 0.013913942 0.40236205 -0.28458494 0.040996235 -0.10016398 0.04945617
-0.2515081 -0.12689595 0.02222976 -0.31079385 0.37421378 0.30917236 -0.10032916 -0.30579093
-0.088905044 -0.19121954 0.27128375 0.38440987 -0.023385176 0.29793948 -0.090528965 -0.10259826
0.26272562 -0.13070625 0.22564396 0.16229708 -0.27295417 0.10412027 0.09980774 -0.2981063
0.24567439 -0.23679465 -0.30186716 0.05556993 0.21223164 0.06007044 -0.15072928 -0.1111273
0.106434405 -0.0041177734 0.06790668 -0.08822453 0.28695107 -0.2115827 0.037414584 0.009508299
0.075251244 0.21661784 0.034315143 0.34749773 0.22769068 0.32984337 0.0136760175 -0.3140859
0.31901413 -0.13642943 0.22862975 0.20749767 0.084876806 0.061274707 0.08631803 -0.13352792
0.27521753 0.31551751 -0.074404344 -0.09851086 0.016177459 -0.120972335 -0.22811158 -0.3837313
-0.3070347 -0.058592048 0.18131079 0.012075953 0.29743463 -0.12854691 -0.020998534 -0.1654486
0.0103348605 -0.12686668 -0.081700414 0.2738828 -0.13824998 0.11527232 0.11471951 -0.033618253
00000000: 2096 0abc 557b 8f3e 251a 203d e1dd 893e
00000010: a2a2 5cbe 32e1 9d3e b45f 36be c5fe c1be
00000020: 1fb1 95be ac08 2c3e 1c68 36be bd5a 49be
00000030: 7a1f 2cbe a188 39be 8698 21be 87f2 b83e
00000040: 10e5 293d 1c8a b2be 0d36 a7bd 5a11 323e
00000050: 1a4f e4bc a016 8dbd ac47 f43e fa7b 553e
00000060: 9332 9abe 021a 4b3e 5c02 81be fa80 9f3e
00000070: 06e6 d3bd 6581 65be c099 08be 738f 1ebe
00000080: fbfc c33e 76b2 13bc 0e15 213e 99c0 00be
00000090: 0219 6ebe 52da 72be 60bf 9b3e 249b 203c
000000a0: d533 b63d b86d 373e 4df7 633c 6602 ce3e
000000b0: 1eb5 91be abeb 273d c622 cdbd 8e92 4a3d
000000c0: abc5 80be 03f1 01be 301b b63c 5f20 9fbe
000000d0: f398 bf3e d74b 9e3e 6079 cdbd a190 9cbe
000000e0: d913 b6bd 0ecf 43be b4e5 8a3e 5fd1 c43e
000000f0: 4592 bfbc 868b 983e 4067 b9bd 091f d2bd
00000100: f983 863e dcd7 05be 360f 673e 3531 263e
00000110: a6c0 8bbe 023d d53d 0068 cc3d 64a1 98be
00000120: 1192 7b3e 4c7a 72be 558e 9abe 4b9d 633d
00000130: 4053 593e 6c0c 763d c758 1abe b696 e3bd
00000140: 48fa d93d 63ee 86bb a812 8b3d 10af b4bd
00000150: 40eb 923e 23a9 58be 0940 193d b2c8 1b3c
00000160: 531d 9a3d 11d1 5d3e 098e 0c3d 39eb b13e
00000170: bf27 693e 3be1 a83e 6011 603c decf a0be
00000180: d255 a33e 28b4 0bbe eb1d 6a3e 457a 543e
00000190: e4d3 ad3d 30fb 7a3d 82c7 b03d 8bbb 08be
000001a0: 50e9 8c3e 838b a13e 4e61 98bd 10c0 c9bd
000001b0: 9786 843c 58c0 f7bd 1596 69be 6e78 c4be
000001c0: a733 9dbe 37fe 6fbd 89a9 393e 38da 453c
000001d0: 5a49 983e cda1 03be 1e05 acbc 5c6b 29be
000001e0: 8c53 293c 57e9 01be 8c52 a7bd 5e3a 8c3e
000001f0: 6791 0dbe e513 ec3d 10f2 ea3d 4bb3 09bd

fc2.weight f4 [64, 128]
0.080622606 -0.16052645 -0.044108104 0.0672355 -0.066986844 -0.005856041 -0.010272529 -0.28567675
0.0045590852 -0.10895509 0.14182217 0.33320028 -0.15151751 -0.0298267 -0.011051789 0.11691321
-0.037036438 -0.091811255 -0.09561336 -0.056899182 0.005301915 -0.15489355 0.13480735 0.09658383
0.19015434 0.30838937 -0.25624448 -0.1833563 -0.07739661 -0.030277189 -0.14124185 -0.09932398
0.3751211 -0.07163065 0.14040282 -0.08750138 -0.11781084 -0.054592803 0.052640684 0.12830523
0.23873104 0.06276266 -0.20872025 -0.028288774 0.101185404 0.03705937 -0.04893833 0.2516535
-0.14134865 0.060459875 0.14649045 0.027376957 0.14975487 0.25061026 -0.04437018 -0.011915606
-0.2530217 -0.31446388 0.17612681 0.25081533 0.17717785 0.2011119 0.05148999 0.06069836
0.13770632 0.0013374332 0.014614643 -0.0058603683 0.11310861 0.09032908 0.029060677 -0.001019791
-0.0053684753 -0.2976127 -0.04229158 -0.04078669 -0.060013663 -0.06995972 0.036486 0.00808873
-0.017420996 0.087331064 0.34607658 -0.15176696 -0.04332982 -0.0135145355 0.19474569 0.1310448
0.10849271 0.19627899 0.30156332 0.09189392 0.14518745 0.12823763 -0.0056166053 0.020357598
-0.017176239 -0.10322565 0.0378031 -0.00018153735 0.2409401 0.000488365 -0.4843014 -0.06915052
-0.12453926 0.19360793 0.026815107 0.019541271 0.18231346 -0.003184829 -0.040434178 -0.16443895
0.0010827631 0.36407176 0.18798284 0.012704841 0.09590712 0.1782779 0.06705591 -0.03576807
-0.24071877 0.082410485 0.20286345 0.11911919 0.0036748608 -0.035694197 0.0749453 -0.25556448
0.037414365 -0.03061517 -0.13089503 -0.014098462 -0.031579137 -0.028202683 -0.08500306 -0.028581053
-0.10180939 -0.05214701 0.011762 0.045169108 -0.09235051 -0.04489302 0.028476 -0.03373398
0.015732765 -0.0636778 -0.062276658 -0.08239188 0.057079367 -0.06638545 0.036693376 -0.053551506
0.0009997785 -0.074706815 -0.104223505 0.052244823 0.04571391 -0.10797237 -0.11073009 0.0023189704
-0.022980005 0.0063003013 0.04267827 0.0670514 -0.00047133214 0.033234283 -0.032556463 -0.0029661376
-0.009473325 -0.10013335 0.0019011496 -0.005762228 -0.062087994 0.0013381101 -0.10149665 0.018276978
-0.077508055 -0.10573452 -0.00217305 -0.04733658 -0.027910687 -0.041215822 -0.09610903 -0.07168426
0.037555724 -0.11812038 -0.030520746 0.005613511 -0.095790595 -0.0059641236 -0.10239736 0.032290462
0.0014815952 0.031028353 -0.031387422 -0.07657751 -0.02825029 0.050293274 -0.016857862 -0.0980468
0.042902384 -0.0015922429 0.015726767 0.06093124 0.03193065 -0.078847386 -0.079930104 0.0055269673
0.026506234 -0.042602133 -0.013867109 -0.087896526 -0.06117738 -0.027562901 0.0026539012 -0.13451163
-0.05449313 -0.001628277 0.056393962 -0.05046663 -0.027308982 -0.064551204 -0.041918382 0.08474103
0.0050183763 -0.010933798 0.0497563 0.041104063 -0.09097622 0.039105788 -0.1296914 0.021063358
-0.049747586 -0.017256632 -0.018178182 0.015557111 -0.09185182 -0.099857956 0.056551926 -0.021877259
-0.05363176 0.07407767 0.012213894 0.051041607 -0.07507958 -0.11765328 -0.044858653 -0.05063011
0.014308037 0.0060666753 -0.03899131 0.038568154 -0.07093383 -0.058652226 -0.07147665 -0.025158389
00000000: 771d a53d 0c61 24be b3aa 34bd c4b2 893d
00000010: 6630 89bd 08e4 bfbb 1c4e 28bc 3944 92be
00000020: 6164 953b d923 dfbd d539 113e 3a99 aa3e
00000030: 6827 1bbe 2057 f4bc 9012 35bc 3170 ef3d
00000040: 85b3 17bd 8a07 bcbd f0d0 c3bd 1e0f 69bd
00000050: b0bb ad3b 6a9c 1ebe f00a 0a3e becd c53d
00000060: d2b7 423e 36e5 9d3e 7a32 83be c1c1 3bbe
00000070: 1d82 9ebd de07 f8bc b4a1 10be 5f6a cbbd
00000080: df0f c03e 17b3 92bd c2c5 0f3e ec33 b3bd
00000090: cf46 f1bd b49c 5fbd c29d 573d 7262 033e
000000a0: e975 743e b689 803d c3ba 55be dcbd e7bc
000000b0: 4b3a cf3d 91cb 173d 8f73 48bd bad8 803e
000000c0: b3bd 10be c6a4 773d 9801 163e a445 e03c
000000d0: 5759 193e fd4f 803e 82bd 35bd ad39 43bc
000000e0: 0f8c 81be 6901 a1be 965a 343e de6a 803e
000000f0: 1c6e 353e 47f0 4d3e 2be7 523d d89e 783d
00000100: e302 0d3e d04c af3a 4172 6f3c 5508 c0bb
00000110: 7da5 e73d 74fe b83d a810 ee3c 82aa 85ba
00000120: 09ea afbb b160 98be f039 2dbd f20f 27bd
00000130: e3d0 75bd 0b47 8fbd 5872 153d 9886 043c
00000140: 7ab6 8ebc a1da b23d f330 b13e cc68 1bbe
00000150: 9c7a 31bd 126c 5dbc 6a6b 473e 9c30 063e
00000160: 6d31 de3d 5cfd 483e 8266 9a3e e132 bc3d
00000170: 05ac 143e ba50 033e 800b b8bb fac4 a63c
00000180: 2fb5 8cbc f867 d3bd 6cd7 1a3d 105b 3eb9
00000190: 00b9 763e 9f05 003a 5af6 f7be ca9e 8dbd
000001a0: 710e ffbd 2841 463e 5bab db3c 0415 a03c
000001b0: 61b0 3a3e 90b8 50bb 4f9e 25bd af62 28be
000001c0: 80eb 8d3a 9d67 ba3e 937e 403e f727 503c
000001d0: f46a c43d 7b8e 363e 9c54 893d 8a81 12bd
000001e0: fb7e 76be d4c6 a83d 70bb 4f3e c3f4 f33d
000001f0: efd5 703b 1434 12bd ec7c 993d 59d9 82be
00000200: ce3f 193d aacc fabc 5909 06be 3cfd 66bc
00000210: 2059 01bd 5009 e7bc 1616 aebd d022 eabc
00000220: 7181 d0bd 1a98 55bd 67b5 403c 3e03 393d
00000230: 4422 bdbd bee1 37bd 8046 e93c a42c 0abd
00000240: 00e2 803c 8269 82bd cf15 7fbd 13bd a8bd
00000250: 0ecc 693d 18f5 87bd cb4b 163d d358 5bbd
00000260: 000b 833a e3ff 98bd 2273 d5bd abfe 553d
00000270: 823e 3b3d 9e20 ddbd 75c6 e2bd def9 173b
00000280: 9040 bcbc c272 ce3b 69cf 2e3d 3f52 893d
00000290: 211d f7b9 ac20 083d ed59 05bd 8863 42bb
000002a0: 0136 1bbc b712 cdbd ff2f f93a 12d1 bcbb
000002b0: fb4f 7ebd 8663 af3a 7add cfbd 9ab9 953c
000002c0: 8bbc 9ebd 578b d8bd bb69 0ebb 00e4 41bd
000002d0: f4a4 e4bc ecd1 28bd d0d4 c4bd 33cf 92bd
000002e0: 08d4 193d 19e9 f1bd a506 fabc 8bf1 b73b
000002f0: dc2d c4bd b26e c3bb b5b5 d1bd 0143 043d
00000300: 1632 c23a 2c2f fe3c 1990 00bd abd4 9cbd
00000310: 276d e7bc 5200 4e3d 8019 8abc c3cc c8bd
00000320: 69ba 2f3d ceb2 d0ba 6cd5 803c 0993 793d
00000330: b7c9 023d bd7a a1bd 65b2 a3bd 901b b53b
00000340: 9a23 d93c 937f 2ebd df32 63bc 1803 b4bd
00000350: 2295 7abd 98cb e1bc 13ed 2d3b 6bbd 09be
00000360: 3034 5fbd e96b d5ba 5bfd 663d 19b6 4ebd
00000370: 16b7 dfbc 6c33 84bd 9cb2 2bbd b58c ad3d
00000380: 3171 a43b ac23 33bc 43cd 4b3d bc5c 283d
00000390: be51 babd 642d 203d d3cd 04be 108d ac3c
000003a0: 20c4 4bbd c85d 8dbc 69ea 94bc 41e3 7e3c
000003b0: cf1c bcbd 5482 ccbd fea2 673d f037 b3bc
000003c0: faac 5bbd 09b6 973d c91c 483c 0111 513d
000003d0: 53c3 99bd 34f4 f0bd b5bd 37bd 8561 4fbd
000003e0: 426c 6a3c f6ca c63b 5ab5 1fbd a4f9 1d3d
000003f0: c245 91bd 513d 70bd 5a62 92bd f718 cebc

fc2.bias f4 [64]
0.04667538 0.034415707 -0.032047648 0.15433846 0.015471091 -0.072718546 0.13842629 -0.060263827
0.068649836 0.120245844 0.053798765 0.12965515 0.20576052 0.06134458 0.065619305 0.16647543
-0.08323079 0.12824474 0.107011616 0.05196953 -0.08149383 0.11970014 -0.10085903 0.17077577
0.036947116 -0.03175924 -0.008404074 0.031246696 0.12834872 0.07764321 -0.015675426 0.11669926
0.0103533 0.0641884 0.1385618 0.024334662 -0.08273438 0.07637886 0.082950495 0.019084116
0.008373349 0.14579622 -0.083309464 -0.005025176 -0.07496618 -0.07596794 -0.05069416 0.01834122
0.14782321 0.052453775 -0.093567476 0.0650471 0.101549946 0.1358239 0.030181842 0.09651372
-0.04267609 -0.108050995 -0.004110594 0.11024754 0.06556033 0.031042295 0.18486403 0.025742045
00000000: af2e 3f3d 7cf7 0c3d 6544 03bd e70a 1e3e
00000010: 757a 7d3c 76ed 94bd 9fbf 0d3e 34d7 76bd
00000020: 4998 8c3d 7443 f63d 185c 5c3d 52c4 043e
00000030: e3b2 523e 7444 7b3d 6a63 863d 8978 2a3e
00000040: e874 aabd 9752 033e e828 db3d 00de 543d
00000050: 3de6 a6bd 5925 f53d 2e8f cebd d8df 2e3e
00000060: dc55 173d fa15 02bd 3eb1 09bc 12f9 ff3c
00000070: d96d 033e 6703 9f3d c069 80bc 0600 ef3d
00000080: e3a0 293c 3575 833d 25e3 0d3e 7c59 c73c
00000090: a570 a9bd 856c 9c3d f3e1 a93d 4b56 9c3c
000000a0: 5f30 093c 9b4b 153e 279e aabd 3baa a4bb
000000b0: de87 99bd 1495 9bbd aea4 4fbd 5440 963c
000000c0: f85e 173e c5d9 563d 4ea0 bfbd 6a37 853d
000000d0: 6bf9 cf3d 6c15 0b3e e93f f73c fca8 c53d
000000e0: 20cd 2ebd d749 ddbd 29b2 86bb 76c9 e13d
000000f0: 7f44 863d 694c fe3c ff4c 3d3e fbe0 d23c

fc3.weight f4 [1, 64]
-0.3263778 0.009926555 0.00035203825 -0.059477404 0.07932073 0.04429229 -0.19928575 0.053178564
-0.13373663 -0.2749768 -0.108324975 -0.07641304 -0.2654971 0.4348434 -0.18034032 -0.08562777
-0.014343378 -0.20888902 -0.06639026 -0.08808835 -0.009126014 -0.14307322 0.015272284 -0.17247327
0.010789365 0.084589355 0.013542745 0.107327595 -0.084958725 -0.111585364 0.018861916 -0.11696911
0.06601141 -0.115958944 0.28993505 0.053980585 0.003766641 -0.18294485 -0.2543943 0.29855326
0.082993954 -0.3116257 0.41472238 0.12431744 -0.08100704 0.003917961 0.010698065 -0.23809963
-0.22154495 -0.1605823 -0.023990046 -0.19217569 -0.2521835 -0.14749159 0.015852097 -0.15292877
0.09298505 -0.018637402 0.058390126 -0.19747812 -0.2031758 -0.12294387 -0.18654314 -0.11824819
00000000: fe1a a7be fda2 223c c691 b839 949e 73bd
00000010: e872 a23d d56b 353d 9011 4cbe c4d1 593d
00000020: 41f2 08be c2c9 8cbe 7cd9 ddbd 717e 9cbd
00000030: 3cef 87be cba3 de3e 22ab 38be 9d5d afbd
00000040: 7d00 6bbc 01e7 55be 9ef7 87bd aa67 b4bd
00000050: 4785 15bc c981 12be 9a38 7a3c d59c 30be
00000060: e0c5 303c 2f3d ad3d 64e2 5d3c 92ce db3d
00000070: d7fe adbd de86 e4bd 4e84 9a3c 808d efbd
00000080: fd30 873d e27b edbd 5e72 943e bf1a 5d3d
00000090: c0d9 763b e555 3bbe f83f 82be f9db 983e
000000a0: bcf8 a93d 678d 9fbe 7e56 d43e 249a fe3d
000000b0: 05e7 a5bd 3d62 803b f046 2f3c 64d0 73be
000000c0: aedc 62be b06f 24be c686 c4bc b4c9 44be
000000d0: 321e 81be 0908 17be 42dc 813c 5c99 1cbe
000000e0: f26e be3d 77ad 98bc 7c2a 6f3d b437 4abe
000000f0: 510d 50be ffc9 fbbd 2a05 3fbe 1b2c f2bd
