CS273A/Project/models/simple_nn_model.pth (torch, 41624 bytes, 5 tensors)

fc1.weight f4 [128, 10]
00000000: 25ac 9bbc 0334 40bd dc41 d53e 4257 07bf
00000010: e1c5 bf3b 08e6 61bd 4cf2 33bd da4b 7f3d
00000020: bea3 21be eef9 11be 500d 19bf 0429 9dbe
00000030: 8313 a43e db4b 56bc d5e5 8fbf c580 0b3e
00000040: f8c0 883e 40e0 a4bd 1183 c23d ef32 153e
00000050: 3de3 67be 4ad6 693e eda5 93bd a81b 75be
00000060: 7b99 d4be 02a8 223f d480 783d 0f77 39ba
00000070: 9995 663e c6d6 b43d f44b 08bf b4e6 52bd
00000080: 2677 e53a 7704 1abe 6c6f ecbe cb62 c73d
00000090: bdc6 fabe 8b2c 9e3e bb68 c7be 0115 d53c
000000a0: 891a b73e dff6 cabc d75f 913b e3ae 11bf
000000b0: ec43 de3b f9cb 773e 17fd 9abf ce0a 1e3d
000000c0: 9298 a83e 1332 473e 6e6e 4f3e ef7f 80be
000000d0: da2d 9fbe 6047 ce3d dbeb 34be 6849 433d
000000e0: 005c fabc 100f dbbd 40f5 efbc d073 f5bc
000000f0: c0b6 8bbe 2097 94bc 86ef ffbd 5c8c 843d
00000100: 547a a33d 5a62 183e 3055 ecbc e431 bfbd
00000110: 8258 b8bd 80b9 bdbd a9e6 f4be 5eb6 813e
00000120: f88b 4abd 0779 04bf 6077 af3e d0ec 9abe
00000130: 5565 b0bd e264 a9bd 542a 003e 4b10 703e
00000140: 0e06 613d 6e8a a5be 5402 97be c3a8 e3be
00000150: 192b fb3b e362 b53e 6235 543e bcaa 353e
00000160: db20 44bd 52f8 2e3e 82ce f83d 205b 8e3e
00000170: a607 793d ba44 693e 10ab 943e c71c 98bd
00000180: fe64 0c3f de43 ae3d e1c7 55bb 49f8 06bf
00000190: 446e 59bf d4e3 83bd 318c 293e 8dbe 1fbe
000001a0: b0f5 90be a801 6abd 220a 1d3d 4569 073e
000001b0: 74e6 c33e b801 ecbe 8d79 66bf e884 973e
000001c0: 44d7 c4bd 02e0 8fbe 3057 293f 226f d9bc
000001d0: 7cda 31be 9fe8 a03e 7422 b63d 39d6 21be
000001e0: ae78 ae3e be72 c7bd 950f 453e 796b f23e
000001f0: c821 b0bd 36d7 cdbd 8c80 eabd ccb0 a13e
00000200: 273d 02be e2b4 c83e ea66 eebe 761f 06be
00000210: bb58 0bbe 215d e63d 1a2a 0b3f 203a e4be
00000220: b8b7 863e 2127 0f3e d557 ea3e 185d 19be
00000230: 659f 21bf e88a 02bd a98b a9bd b5ae e4bd
00000240: 4fca 3f3f 51e7 373c b671 8bbe 93e2 38bd
00000250: e14e 8ebd 35da e23d 32b7 9a3d fe2b 213e
00000260: da01 1cbd fd72 0f3d 932e 113f d9b5 89be
00000270: 57cf d9bc 85b8 8abe eae7 9c3d 5ca1 b9be
00000280: 4529 31be df0d df3e 8b7f a33e 1da0 2f3e
00000290: a32a 15be af67 2cbf b9f8 03be ce9f 7c3d
000002a0: 07ba 333d 617f 0dbf c00b 733d 8778 ecbb
000002b0: 1283 9f3e f693 11bf 636a 0f3f 0887 933c
000002c0: 5eab 2e3e 33c2 1ebd f947 763e 60b5 84be
000002d0: 923f 963d ecd6 2b3e e7ad 503c 46a7 b63e
000002e0: 01a2 35be 6aa4 d5be 99b4 07bf 6c95 57be
000002f0: e2bd a23d c47b 413d 852e 37be da67 653d
00000300: 0a78 afbd 55dd b03e 8c8c 3f3e 2c34 dabe
00000310: d90d 9b3e 8b73 94be 790d 8ebf 5b5a fcbe
00000320: 4dbd 8a3e 101e 843c 0208 053e 8f2c a0be
00000330: 2ed1 52be e5b9 81be 3043 84be c606 9cbe
00000340: 59b5 21be 484c 4dbe 3269 3c3b d417 d83d
00000350: 2e3d 00bf 2211 1b3f 6a76 c9bc e8d1 a7bc
00000360: b1cd 1b3d f6cb 8a3d f6fc edbc d588 443e
00000370: f56a 173f a661 abbd 28f3 883e 60b1 943e
00000380: 09d0 4bbe a627 5fbe b22f 11bf b087 54bf
00000390: 8e02 04be fe12 263e b04a f9bd 257f 93be
000003a0: b6a3 bfbc 9979 a13d 165c 253e b513 6d3e
000003b0: 0a12 5b3b 074e 00be ef17 c7bc 351e 4abe
000003c0: 4dd5 69bf 8520 92bc 858d 033e 94b1 3bbe
000003d0: 6b50 f33d 53ee 5f3e 125e b23e ff87 683d
000003e0: ff46 9ebe 8dc0 f03d 0cdd 6dbe eb19 48be
000003f0: 5dc2 66be ef54 ad3c 507a a83d 4d85 07bd
-0.019002983 -0.046924602 0.4165181 -0.5286752 0.0058524464 -0.055151016 -0.043932244 0.062328197
-0.15785119 -0.14255497 -0.5978594 -0.30695355 0.32046136 -0.013079609 -1.1242014 0.1362334
0.26709723 -0.08050585 0.09497655 0.14570211 -0.22645278 0.22835651 -0.07209382 -0.23936331
-0.41523346 0.6353761 0.060669735 -0.0007074931 0.22518004 0.08830027 -0.53240895 -0.051489547
0.0017506822 -0.15040766 -0.46178758 0.0973564 -0.4897975 0.3089336 -0.3894709 0.026010992
0.35762432 -0.02477592 0.004436474 -0.5690748 0.0067829993 0.24198903 -1.2108487 0.038584523
0.32928902 0.19452696 0.2025697 -0.25097606 -0.3108967 0.100722075 -0.17668097 0.047677428
-0.030561447 -0.10696232 -0.029291749 -0.02996245 -0.27287865 -0.018138468 -0.12496857 0.06472084
0.079823166 0.14881268 -0.028849214 -0.09335688 -0.090012565 -0.09263897 -0.4783223 0.25334448
-0.04944989 -0.51747173 0.34270763 -0.302588 -0.086130776 -0.08271195 0.12516147 0.23443715
0.054937415 -0.32332176 -0.29493964 -0.44464692 0.0076650498 0.35427007 0.20723489 0.17740911
-0.047882896 0.17086914 0.12148763 0.27803898 0.06079831 0.22780123 0.2903676 -0.07427364
0.548416 0.085090384 -0.0032620358 -0.52722603 -0.84933877 -0.06439939 0.16557385 -0.15600033
-0.28312445 -0.057130486 0.03833974 0.13223751 0.3826176 -0.4609506 -0.9002922 0.29593587
-0.09611371 -0.28100592 0.6614866 -0.02654225 -0.17368501 0.31427476 0.0889329 -0.15804376
0.34076446 -0.09738682 0.19244225 0.4734762 -0.08600193 -0.10050814 -0.114502996 0.31580198
-0.1271864 0.39200503 -0.46562892 -0.13097939 -0.13608067 0.11248232 0.54361117 -0.44575596
0.2631204 0.1397977 0.45770136 -0.14976919 -0.6313384 -0.031870753 -0.08278591 -0.11166135
0.74918073 0.011224584 -0.27235192 -0.045137953 -0.06948639 0.11076776 0.07554473 0.15739438
-0.038087703 0.03502177 0.5671169 -0.2689655 -0.026588125 -0.27093902 0.076614216 -0.3625592
-0.173009 0.4356527 0.31933245 0.17150922 -0.14567046 -0.6734571 -0.12887849 0.06167584
0.04387858 -0.5527249 0.059337378 -0.0072165164 0.31154686 -0.56866395 0.5602171 0.018008724
0.17057559 -0.03875942 0.24050893 -0.25919628 0.07336344 0.16781205 0.012736774 0.35674495
-0.17737581 -0.41727 -0.53009945 -0.21053094 0.079463735 0.047237173 -0.1788884 0.056007244
-0.085678175 0.34543863 0.18705958 -0.4261793 0.30284002 -0.28994402 -1.1097862 -0.49287686
0.2709755 0.016127616 0.12991336 -0.31283996 -0.20587608 -0.2533714 -0.2583251 -0.30473918
-0.15791835 -0.2004863 0.0028749225 0.1055142 -0.5009335 0.6057302 -0.024592597 -0.020485833
0.03803796 0.06777184 -0.029051285 0.19192822 0.5914758 -0.08368234 0.26748013 0.29041576
-0.19903578 -0.21792468 -0.567134 -0.8301954 -0.128916 0.16218182 -0.12172449 -0.2880794
-0.023393493 0.07884521 0.16148409 0.23152049 0.00334275 -0.12529765 -0.024303405 -0.19738086
-0.91341096 -0.017837772 0.12846954 -0.1832946 0.11880573 0.21868257 0.34837395 0.05677032
-0.3091354 0.11755476 -0.23228854 -0.19541137 -0.22535081 0.021158664 0.08226454 -0.03308611

fc1.bias f4 [128]
00000000: 181d a73e 67cb 9abc 60bd 70be b365 b23e
00000010: a2d6 dc3d 58bc 83be 90b1 9dbe 48c9 813e
00000020: d6ec d83e 5641 13bf 79fa 983d 8faa 72bd
00000030: 5777 f5be 39ee 82be 1bd3 053e 716c 583e
00000040: f5d4 c4be 2130 0bbd b497 da3d da7d dcbd
00000050: 20b7 cfbd 60a4 18be b784 7c3d 1fa0 92be
00000060: 09d8 553e b26c a73e 3934 8ebe c442 bb3b
00000070: 9583 893e abbe cc3e 5c58 a4be 3bc5 6dbd
00000080: ffb6 89be 914e 863e cda6 59bd 048a 9ebe
00000090: c28b 113e 6fcc a33e 398a 4fbd 2a02 07be
000000a0: f062 883d 704a 92be b1f3 8cbd ea3f f23d
000000b0: 6858 583e 77e5 a1be da3b 533e 7c4d 243e
000000c0: 2456 44be bbe8 213e 80b8 503e 9727 613d
000000d0: f329 9ebe b3cf b9bd 1153 79bd c912 54bd
000000e0: c827 91be 1c4a 05bc 8cb4 e93e 5802 bcbd
000000f0: 09f9 bdbd 4c0c cabd 4e48 13be b5e7 a03e
00000100: e54c b9be 251e b5bc 91ea 04bf beba acbe
00000110: 965d 2e3e d17a e13d f381 233e 9fd4 98be
00000120: b91e 57be b5ab 4b3e c2fe 76be cea3 993c
00000130: 3723 90be 5d7e d33c 1d19 a4bd c77b b93d
00000140: ef2e a13b 8007 853d 6209 b4be 2201 533e
00000150: 36a5 023d a0df 333e 2c37 e2bc d803 07be
00000160: 2010 f0be cdaa 2c3e 50ed a3be 0d0d 3ebe
00000170: ba1e 62be c966 47bd 5c58 5c3e 7f67 1e3c
00000180: 8605 d23d b2aa f83e da65 c23e 5741 c63e
00000190: 561b 45bd 7519 9b3d 45e4 7c3e be01 693e
000001a0: a171 223e 0246 9fbe 15d0 9ebe 9b7a 3a3b
000001b0: 396e cb3e 872c 9a3d a338 a5bc 2333 193d
000001c0: 11e6 15bf 74cf ca3e 5a79 ed3d 8041 fbbd
000001d0: 9e16 cdbd 2bf8 453d 5ec2 cb3d c6b6 a23e
000001e0: 7e53 4c3e 4300 3a3e f62e 443e 160e 643e
000001f0: 3f22 f93e f739 81bd b3d2 cc3e adcf 2c3d
0.32639384 -0.018895818 -0.23509741 0.34843215 0.107831255 -0.25729632 -0.30799532 0.25348878
0.4236819 -0.5752157 0.07469649 -0.05924469 -0.47942612 -0.25572374 0.13068812 0.21135117
-0.38443723 -0.033981446 0.10673466 -0.10766192 -0.1014235 -0.14906454 0.061650004 -0.28637788
0.20883192 0.32700115 -0.27774218 0.005714746 0.26858202 0.39989218 -0.32098663 -0.05804942
-0.26897427 0.26231816 -0.05313759 -0.30964673 0.1421347 0.31991908 -0.05066893 -0.1318442
0.06659496 -0.28572416 -0.06882418 0.11828597 0.21127474 -0.3162038 0.206283 0.16045183
-0.19173485 0.15811436 0.20382881 0.054969396 -0.3089138 -0.090728186 -0.060870234 -0.051775727
-0.28350663 -0.008135345 0.4564556 -0.091801345 -0.09276015 -0.09865627 -0.14383051 0.31426778
-0.36191478 -0.0221091 -0.5192042 -0.33736223 0.17027888 0.110097535 0.1596754 -0.29849717
-0.21007814 0.1988972 -0.2412062 0.018754866 -0.28151867 0.02581709 -0.080126025 0.09056812
0.004918925 0.06495571 -0.3516341 0.20605901 0.03189584 0.17565775 -0.027614199 -0.1318506
-0.46887302 0.1686203 -0.32016993 -0.18559666 -0.22082034 -0.048682008 0.21518081 0.00966823
0.1025496 0.4856773 0.37968332 0.38721725 -0.048121773 0.07573215 0.24696453 0.22754571
0.15863658 -0.311081 -0.3101813 0.0028454426 0.3973253 0.07528024 -0.020168608 0.037402283
-0.5855418 0.396114 0.115954116 -0.122683525 -0.100140795 0.048332375 0.09949182 0.3178007
0.19953725 0.18164162 0.19158539 0.22270998 0.4865894 -0.06309884 0.400045 0.042190243

fc2.weight f4 [64, 128]
00000000: bda3 0cbd b513 94bd c153 71bd f2c9 38bd
00000010: f2e0 5ebd 7e9f 8fbd 1c40 29bd 8376 a5bd
00000020: 2fe7 1d3d 40ad 433d 29fa 01bd 91d1 bfbd
00000030: 1d61 bbbd 3769 7ebd 1dec 95bb 2512 ec3c
00000040: d14a 43bc e8bd 973c bbf5 f53c 58d1 913d
00000050: e95e 873d 8210 64bd d389 2dbd a09d 353c
00000060: f730 2ebd 2d1f 6cbd 721d 503d c943 11bd
00000070: 0cbc 7cbd a7dc 73bd e5ab 913d e818 2ebd
00000080: d15e adbd 0d97 6d3d ec11 d7bd 8067 bdbc
00000090: 8507 8c3d 24a3 37bd 081d b8bd 8e76 efbc
000000a0: 9b0d 29bd 00d6 b43c cea6 473d 191c f1bc
000000b0: 338d 25bb d021 d13c 8020 ecbd 86b4 2c3d
000000c0: 862b 98bd 1ecf 5d3c 6a77 ecbc d59d ed3c
000000d0: 3c4d 98bd 6405 9abd aa78 a1bd f887 bdbc
000000e0: 952a 363d a2ef a1bd b8fa ce3c c107 543b
000000f0: b058 0fbd 8713 643c c60b cbbc afcf c2bc
00000100: 2fd0 cbbd d06a aebd 8ca2 07bd 0187 633c
00000110: 5521 b4bd 8c71 003d 833a eebd 008f 48bd
00000120: 2ee9 00be 4f22 c4bd 8bad 353d 1c1a b93b
00000130: 0c83 4cbd cd83 273d 9d30 7bbd 950e 40bd
00000140: a8bc 8cbc 02ce a6bc ebd3 383d 1d92 6f3d
00000150: 9a63 133d d4db 5b3d e5fd e43c e07f 3ebb
00000160: ffc1 10be 28c7 a3bd 6d99 203c aaf4 94bd
00000170: c1b7 9ebd 8e74 e4bb 3272 22bd 985a 0c3d
00000180: b87b 1ebd 4674 4d3d 96c8 1e3d 5a5b 13be
00000190: 6cff 583d 5d03 c8bd 1a8b a3bd 1dbe 693d
000001a0: 7771 df38 0261 3c3d 5cd9 23bb 650e e4bc
000001b0: 8f1c ecbd ccb2 473d 9e24 aabc 31cf cc3c
000001c0: 7bcb 533d 9b59 833c 3d08 f7bc fc9d cfbd
000001d0: 0b03 9bbc 76a7 873a 22d1 383c 8579 00be
000001e0: ba1f a1bb 978a 823c e9de e7bd 22b7 143c
000001f0: 47c3 413d af88 c4bd bcb2 edbd 5890 373d
00000200: b9e2 9d3d 66d1 0d3d 84cc e8be 92cd 81be
00000210: 9c2f 80bf 368f 94bd c912 aa3d 4c01 70be
00000220: f904 0f3d 8a49 fcbe 2eb9 623e 8246 dc3d
00000230: cbb0 e6bd 0408 103e f999 e0bd 038a 3abd
00000240: 217f a83e 5460 133e 7f3c 51bf d061 013f
00000250: 5018 e7bc 426b 8ebe d0d0 563f 95b3 823d
00000260: 910f a23e f3e2 6dbd 597f 67bd f075 e73c
00000270: cea3 ca3e 78e5 96be 5aa2 783e 47b4 40bd
00000280: a3ca debe 0ffa d63e 9bca 46be 4f56 6cbd
00000290: b25c 9fbe 7527 8b3d a3be 7e3e 27fc b23e
000002a0: 6c37 e33e bed9 a63e cd5d a5bd fc36 8f3f
000002b0: cbf6 f8bd 7653 3c3d f49b b6be 99c4 003e
000002c0: 4d9d b33e ed43 b0bd 7da4 fbbd 31b2 393f
000002d0: b95d c43e 76ed b53f 1a8d 65bd 797b 7b3e
000002e0: 8101 f2be 4c86 7fbe 471e c4be b481 57b9
000002f0: a4d3 4cbd 2b0a 013f daa8 2fbd e7fe a7be
00000300: 6c47 3f3e eb22 e23c 1c73 5ebe 5920 dcbd
00000310: 99b8 92bd 5236 ecbe aa86 2340 f6ff 1bbe
00000320: b4a6 33bf 94a8 50bd 29f0 d8be a951 72be
00000330: 84fd ec3e 1de4 e43e 2e9a 95be 4e49 d53d
00000340: a298 653c f6b5 5b3e 3170 22be fec4 5e3e
00000350: dc4b 9c3d 2886 8b3e b65d 583d 8769 6b3f
00000360: bafa 263d 1879 3cbd 3fcb c33d 4d7e 89be
00000370: 84e1 e03e 2063 57bf 65e0 16bf 02ed 6abe
00000380: 2080 873e 6207 1a3e 70a5 e83c 54aa f1bd
00000390: 513f b7bd 8cce f0be 562f 183d 3505 5e3d
000003a0: 03e2 02be 56f2 04bf 7a2f 15bf 97ae 9b3b
000003b0: 7587 1a3d 570c f13f ef35 fe3c 0216 a6ba
000003c0: 9288 23bf 880d d4bd 6080 a33d d93c dcbe
000003d0: 4535 c3bb ea0c 15bf a4d0 323d 7d2a 2dbd
000003e0: b337 0ebc 1dc9 323e b369 113e 2dc6 d7be
000003f0: 06d5 ffbe 00a2 f5be 4cb5 86bc 6b54 943e
-0.03433584 -0.07230321 -0.058917765 -0.045114465 -0.054413743 -0.070128426 -0.041320905 -0.08079245
0.038550552 0.047772646 -0.031732712 -0.093661435 -0.09149382 -0.06211206 -0.004575266 0.028817246
-0.011919693 0.018523172 0.0300244 0.07120007 0.066098996 -0.055679806 -0.042367768 0.011084944
-0.042527165 -0.05764692 0.05080933 -0.035465036 -0.061702773 -0.059536602 0.071128644 -0.04250422
-0.084653504 0.05800538 -0.10501465 -0.023120642 0.06837372 -0.044833317 -0.08989912 -0.029231336
-0.04127274 0.0220747 0.04874306 -0.029432343 -0.0025261163 0.025528818 -0.115296364 0.042164348
-0.074301764 0.01353815 -0.028865535 0.029005924 -0.07436606 -0.075205594 -0.07884343 -0.023136124
0.044474203 -0.079070345 0.025266036 0.0032353255 -0.03499669 0.013920671 -0.024785887 -0.023780672
-0.09951817 -0.085164666 -0.033114 0.013887168 -0.0879542 0.031358287 -0.11632254 -0.0489645
-0.12588951 -0.09576856 0.044354957 0.0056488644 -0.049929664 0.04089718 -0.061325658 -0.046888907
-0.017179802 -0.020361904 0.045123976 0.058488954 0.03598366 0.05367644 0.027953098 -0.0029067919
-0.14136504 -0.079969704 0.009802205 -0.072732285 -0.07749892 -0.006971902 -0.039659686 0.034266084
-0.038692206 0.050159715 0.038765512 -0.14390317 0.052977964 -0.097662665 -0.07985516 0.05706607
0.00010654603 0.04599095 -0.0025001382 -0.027838895 -0.115288846 0.0487545 -0.020769414 0.02500114
0.051707726 0.016033938 -0.030155296 -0.10137555 -0.01892235 0.001034959 0.01128033 -0.12546356
-0.004917112 0.015935225 -0.113218136 0.009076865 0.04730537 -0.09596383 -0.116063565 0.04481539
0.077092595 0.034623526 -0.45468533 -0.2535215 -1.0014529 -0.07253878 0.08304364 -0.23437995
0.03491685 -0.49274856 0.22140953 0.10755636 -0.11264189 0.14065558 -0.10966868 -0.045541774
0.32909492 0.14392215 -0.81732935 0.50539875 -0.028209835 -0.27816206 0.8391237 0.06381909
0.316525 -0.058077764 -0.056517933 0.02825448 0.39578098 -0.29471946 0.24280682 -0.047046926
-0.43513975 0.41987655 -0.19413225 -0.057699498 -0.31125408 0.06794635 0.2487741 0.34958002
0.4437822 0.32588 -0.08074532 1.1188655 -0.12156447 0.045978032 -0.35665858 0.12574996
0.35080948 -0.08606706 -0.12287233 0.72537524 0.38352755 1.4213092 -0.056042768 0.2455882
-0.47266772 -0.24953574 -0.3830435 -0.00020552316 -0.050006524 0.5040614 -0.04288564 -0.32811663
0.18679589 0.02760454 -0.21723598 -0.10748357 -0.071641155 -0.46135193 2.5550942 -0.1523436
-0.70176244 -0.05094202 -0.42370728 -0.23663963 0.46287167 0.44705287 -0.29219192 0.104143724
0.014013441 0.21456131 -0.1586311 0.21754834 0.076316565 0.2725079 0.052823745 0.91957897
0.040766455 -0.04601392 0.095602505 -0.26854172 0.43922055 -0.8413563 -0.5893615 -0.22941974
0.2646494 0.15041879 0.0283992 -0.11800066 -0.089476235 -0.47032583 0.037154518 0.054204185
-0.12781529 -0.51932275 -0.5827557 0.0047510373 0.03772684 1.8831891 0.031031577 -0.0012671354
-0.63880265 -0.103541434 0.0798347 -0.43015173 -0.005957278 -0.5822283 0.043656006 -0.042276848
-0.008680272 0.17459531 0.14200477 -0.42143384 -0.4996721 -0.4797516 -0.016443871 0.28970656

fc2.bias f4 [64]
00000000: e488 cb3c dd99 df3d 08b9 99bc e652 8b3c
00000010: fc8f 9dbd e0c4 5a3c 1020 0e3e f4d0 0d3d
00000020: de52 803c 2eae 37bd 7f2a 713e 3da1 8ebc
00000030: c435 a5bd 313c ed3d 4880 a33d dd42 7cbd
00000040: 9b17 a43d 3d7e f4bd 50a9 9ebe 7c7c 253e
00000050: 756c 5a3e 6c49 ee3d 2217 833d 10bc 373e
00000060: 9ced b23d c4d8 dcbd bcf0 573e 6f27 7e3e
00000070: 9d72 0e3e 84c3 f23d 8bee 113e 2a07 4abc
00000080: 4b23 49be 0dcc b5bd 9596 edbc 6212 783d
00000090: fc19 643e cd43 0e3d cc88 c0bd b7d5 333c
000000a0: e1fb 1e3e 9bca 3abd faa0 013d f419 493d
000000b0: 735d a739 8459 fb3d 691b 1d3e 8c3f d73d
000000c0: fb42 4f3e 7fc1 98be 0fa8 973c 4d46 033e
000000d0: aaf6 8ebe c620 ae3c 3fdf 31bd a32f 023e
000000e0: 0cba 843e d2ef 0b3e 6fa1 dd3c 1d5f b9be
000000f0: 77ac c4bd ceda 8fbc 3490 90bd 7cc3 033e
0.024845548 0.10918019 -0.018764988 0.017007302 -0.076934785 0.013352603 0.13879418 0.0346231
0.015664514 -0.044843845 0.23551367 -0.017410869 -0.080668956 0.11583746 0.07983452 -0.061587203
0.08012315 -0.119381405 -0.3098855 0.16160768 0.21330436 0.11635098 0.064008966 0.17942834
0.08736727 -0.10783532 0.21087927 0.2481973 0.13910909 0.11853698 0.14251153 -0.01233081
-0.1964237 -0.0887681 -0.029002467 0.060564406 0.22275537 0.03473263 -0.09401092 0.010976247
0.15525772 -0.045603376 0.03164766 0.049097016 0.00031922347 0.12272933 0.15342487 0.105101675
0.20240395 -0.29835126 0.018512754 0.12819786 -0.27922565 0.021255862 -0.043425795 0.12713484
0.25923193 0.13665703 0.027054517 -0.36205378 -0.096032076 -0.017560389 -0.070587546 0.1286754

fc3.weight f4 [1, 64]
00000000: fd4d 303d abaf 6bbf f73d 1b3d 4780 cdbb
00000010: 97ed 4ebc cfb4 903f aba1 02bd 3608 c23d
00000020: 9c1a 813c 6ba0 283b 9b6c 66be aa50 c93c
00000030: 2e27 343b 95d6 41bd b7ed 57be c643 113c
00000040: 41bb 52be f33c 8e3d 6691 f7be c51b ac3e
00000050: c49a 41be 0039 7ebd e632 cebf 36d3 40be
00000060: 2316 bcbe d996 ce3d ae8c a0be e567 4cbf
00000070: ac14 30be d30d 0abe fb7c 45be b300 813d
00000080: 2120 823f b689 29bf 5b10 6c3d 4ef4 0bbe
00000090: 97f0 1cbe a18d c63d d3d8 a13c 6dfa 073d
000000a0: 37c3 0abe 2bcf 473f ff14 593f 8d77 9e3e
000000b0: 4606 383b f3fa 1bbe 92a5 5bbf 7849 febd
000000c0: 7421 88be ae72 afbf 108c e23c 5b0a 74bd
000000d0: 17cd 853f aa16 8f3d 75df 93bf cf24 29bd
000000e0: 2de8 f1be b790 22bf f9b2 963e d86a b93f
000000f0: f426 82bb 8e1f 9b3d 783f 123c a30d 15be
0.043043125 -0.92064923 0.03790089 -0.0062713954 -0.012629888 1.1305178 -0.03189246 0.09474222
0.015759759 0.0025730382 -0.22502367 0.024574596 0.0027489173 -0.047323782 -0.21086775 0.008866256
-0.20579244 0.06945219 -0.48353118 0.33614936 -0.18906695 -0.06206608 -1.6109283 -0.1883057
-0.3673564 0.10087366 -0.3135733 -0.7984603 -0.17195386 -0.13481836 -0.19285958 0.062989615
1.0166055 -0.66225755 0.057632785 -0.13667414 -0.15326153 0.09694982 0.01975671 0.03319781
-0.13551031 0.7805049 0.8479766 0.30950585 0.002807991 -0.15232448 -0.85799515 -0.12416357
-0.26588023 -1.3706872 0.027654678 -0.05958019 1.0453213 0.06986745 -1.1552569 -0.04129487
-0.4724745 -0.6350207 0.2943342 1.4485731 -0.0039719287 0.07574378 0.008926265 -0.14555983
