CS273A/Project/models/simple_nn_model.pth (torch, 42648 bytes, 5 tensors)

fc1.weight f4 [128, 12]
0.23059128 0.08068497 0.19238488 -0.24363928 -0.13587844 -0.002270987 0.13250497 -0.14756355
0.16062395 -0.034234945 -0.41519427 -0.1816002 -0.12168516 0.25522134 0.23009796 -0.2049792
-0.24449931 -0.19992423 0.08830811 -0.112817235 0.34328908 0.02296947 0.0068531483 -0.22374628
-0.2119622 -0.072269484 0.12579636 -0.16275778 0.21235508 0.017144179 0.045200665 -0.260583
-0.050389662 -0.09733303 0.11856064 0.30390033 -0.08118858 -0.12449267 0.18049772 -0.024067301
-0.325258 -0.18976209 -0.020368492 0.21668002 0.27430817 0.18536833 -0.27636167 -0.3039504
0.16187295 -0.19292812 -0.011694532 -0.15751891 -0.26577473 0.10834884 0.0893143 -0.14088748
0.24547796 0.10445591 -0.50341976 0.20117623 -0.1906892 -0.22980772 0.23320207 0.11788676
0.23035575 0.15808363 -0.06443575 -0.21864514 -0.1799739 -0.20666884 -0.29814878 -0.025919415
0.030841596 0.00017594156 0.16094139 0.286597 -0.17674823 0.13119347 0.13068321 -0.16450931
0.013413707 0.34793758 -0.3487621 -0.011616976 -0.37072128 -0.2166062 -0.18866314 0.3202259
0.17815164 0.28024015 -0.07520246 0.006126661 0.06072577 0.05542965 -0.31709477 -0.19214259
-0.21792202 -0.12953438 0.22849502 -0.29202166 -0.8677731 0.14796054 0.048509173 -0.18213029
-0.27731615 0.20965649 0.2415839 0.003324614 -0.58336514 0.102126874 0.10276212 -0.26319647
0.31959283 -0.0059338612 0.12708385 -0.13066624 0.17174292 -0.15206659 0.0890145 -0.0470052
-0.11002735 -0.09674456 0.19888517 -0.18256348 -0.21588339 -0.3209012 0.4893122 -0.08525976
-0.3409401 -0.29864192 -0.03843628 -0.1254023 -0.15019067 0.17467004 -0.0102820825 0.0901305
-0.37279707 -0.2710147 0.34514126 0.024444653 0.08274326 0.117910184 -0.15526436 -0.22292495
-0.7497486 -0.07313263 0.1754909 0.12600617 0.16398925 -0.045851685 -0.12596446 -0.029202664
-0.04569113 0.070208706 -0.2781899 -0.08466483 0.19054157 -0.14155747 0.017581528 0.16867363
-0.61398333 -0.15849483 -0.08610568 0.10388072 0.1625498 0.65458125 -0.37547666 -0.07220861
-0.5417799 -0.074983984 -0.23719195 0.04038786 0.4417468 -0.020979455 -0.060837552 0.031813934
-0.34473503 -0.04970332 -0.20822856 0.18238394 -0.18732509 -0.043333873 -0.089135766 -0.12122903
-0.50820875 -0.0922433 0.094041035 0.3529253 -0.06992878 0.34092334 -0.22039187 -0.2034771
0.24933417 -0.22172448 -0.29983616 0.076328725 -0.22190072 -0.018731058 0.039413836 -0.18039566
0.10774695 0.20954719 -0.21732669 0.055431224 0.18585947 0.29848957 0.18181801 -0.25837314
-0.09458568 -0.18008322 0.090588555 0.12753397 -0.2119469 -0.10233563 0.003627935 -0.21351647
-0.087906174 0.042087846 0.020482285 0.23018943 -0.291587 0.14120474 -0.023949398 -0.064914934
-0.008965457 0.44479474 -0.043351978 0.1937775 -0.08308203 0.104557715 -0.17682184 -0.0078597795
-0.013985439 -0.056765877 -0.09917599 0.09236237 -0.12597194 -0.10715321 -0.096503146 -0.027397554
-0.19415033 -0.076023884 0.05044488 -0.021876208 0.37712252 -0.00820843 -0.06976348 -0.12654257
-0.35436484 0.070285425 0.059919972 -0.16342157 -0.2126068 0.19415867 -0.07257252 -0.05784011
00000000: 1f20 6c3e 293e a53d 8b00 453e 937c 79be
00000010: b823 0bbe d7d4 14bb 62af 073e e61a 17be
00000020: 9b7a 243e f139 0cbd 5894 d4be 67f5 39be
00000030: 1236 f9bd 5fac 823e cd9e 6b3e 11e6 51be
00000040: 075e 7abe f0b8 4cbe e2da b43d b90c e7bd
00000050: 96c3 af3e 782a bc3c 6090 e03b bf1d 65be
00000060: 9e0c 59be 0602 94bd c3d0 003e faa9 26be
00000070: 9c73 593e f371 8c3c 5524 393d 236b 85be
00000080: 6465 4ebd 8a56 c7bd eccf f23d d398 9b3e
00000090: 3346 a6bd 03f6 febd 65d4 383e ca28 c5bc
000000a0: 3788 a6be fe50 42be d3db a6bc 5ee1 5d3e
000000b0: 1f72 8c3e 32d1 3d3e 477f 8dbe 639f 9bbe
000000c0: 06c2 253e f38e 45be 6c9a 3fbc a34c 21be
000000d0: a013 88be ffe5 dd3d 6aea b63d cf44 10be
000000e0: 935e 7b3e fbec d53d 1ee0 00bf 2401 4e3e
000000f0: 0844 43be b752 6bbe 86cc 6e3e 9d6e f13d
00000100: 61e2 6b3e ade0 213e e4f6 83bd 83e4 5fbe
00000110: 144b 38be ffa0 53be f5a6 98be f454 d4bc
00000120: 84a7 fc3c f47c 3839 d2cd 243e d8bc 923e
00000130: 7dfd 34be 9557 063e d2d1 053e 2175 28be
00000140: 2ac5 5b3c e024 b23e f290 b2be 2155 3ebc
00000150: 2ecf bdbe 04ce 5dbe e930 41be a6f4 a33e
00000160: 626d 363e a37b 8f3e bf03 9abd 28c2 c83b
00000170: 96bb 783d 330a 633d 3f5a a2be 07c1 44be
00000180: f326 5fbe a9a4 04be 99fa 693e dd83 95be
00000190: 6126 5ebf f882 173e 8eb1 463d 5d80 3abe
000001a0: 62fc 8dbe 31b0 563e c561 773e c4e1 593b
000001b0: 6b57 15bf e527 d13d f274 d23d b0c1 86be
000001c0: aca1 a33e d670 c2bb 4522 023e 5fcd 05be
000001d0: 60dd 2f3e 58b7 1bbe 3c4d b63d 8688 40bd
000001e0: 0556 e1bd 0322 c6bd 8ea8 4b3e ecf1 3abe
000001f0: 8910 5dbe 294d a4be 2187 fa3e ab9c aebd
00000200: b38f aebe 98e7 98be 5c6f 1dbd 7669 00be
00000210: 95cb 19be b4dc 323e 2e76 28bc 5796 b83d
00000220: 42df bebe 70c2 8abe 5bb6 b03e 2740 c83c
00000230: 4c75 a93d e57a f13d 9ffd 1ebe 7046 64be
00000240: 86ef 3fbf 8fc6 95bd e3b3 333e c307 013e
00000250: ccec 273e face 3bbd d4fc 00be 6d3a efbc
00000260: 9f26 3bbd 95c9 8f3d e86e 8ebe c164 adbd
00000270: 541d 433e 71f4 10be 2307 903c c8b8 2c3e
00000280: 032e 1dbf 784c 22be 2d58 b0bd 6abf d43d
00000290: 7473 263e a392 273f 7a3e c0be 1ce2 93bd
000002a0: 16b2 0abf 3491 99bd 72e2 72be be6d 253d
000002b0: a32c e23e 1bdd abbc cc30 79bd 544f 023d
000002c0: 1c81 b0be b595 4bbd de39 55be dbc2 3a3e
000002d0: 26d2 3fbe dc7e 31bd d08c b6bd ed46 f8bd
000002e0: f819 02bf 0eea bcbd 9698 c03d a0b2 b43e
000002f0: d236 8fbd 818d ae3e 68ae 61be 4d5c 50be
00000300: 7551 7f3e be0b 63be 2084 99be 3c52 9c3d
00000310: f139 63be e071 99bc 6770 213d a4b9 38be
00000320: 6faa dc3d 8a93 563e e38a 5ebe da0b 633d
00000330: f251 3e3e a0d3 983e 802e 3a3e 7c49 84be
00000340: 23b6 c1bd bc67 38be 7e86 b93d 4498 023e
00000350: 9c08 59be 5895 d1bd a6c2 6d3b 10a4 5abe
00000360: 2708 b4bd 4e64 2c3d 77ca a73c c7b6 6b3e
00000370: e44a 95be fa97 103e 8731 c4bc 1ff2 84bd
00000380: dae3 12bc 23bc e33e d891 31bd 9c6d 463e
00000390: e926 aabd 5b22 d63d c910 35be 4ec6 00bc
000003a0: 2f23 65bc 5683 68bd c81c cbbd 7b28 bd3d
000003b0: cafe 00be 2473 dbbd 71a3 c5bd d670 e0bc
000003c0: 58cf 46be 69b2 9bbd 4a9f 4e3d bc35 b3bc
000003d0: 3416 c13e a77c 06bc 28e0 8ebd 6094 01be
000003e0: 4f6f b5be cef1 8f3d a56e 753d fc57 27be
000003f0: 99b5 59be 88d1 463e e7a0 94bd c0e9 6cbd

fc1.bias f4 [128]
0.28744963 -0.008101535 -0.07913163 0.23947854 0.124670975 -0.022440756 -0.15202445 -0.023500768
0.30123273 0.14633389 0.027492369 -0.043188684 0.2997753 0.24570955 0.060458288 0.13919832
0.14080451 0.3295525 -0.19934638 0.37833846 0.25180843 -0.09252939 -0.23876841 0.18147506
-0.32004026 0.075465016 -0.1590196 -0.20939128 -0.2523692 0.15798295 -0.33858532 -0.23736657
-0.156108 -0.06800453 -0.16732858 0.0743533 0.039293926 0.07763321 0.23658156 0.021019666
-0.035951648 0.021580715 0.34565973 0.11551444 -0.12562145 0.29709327 -0.11262007 0.279244
-0.24711122 0.16738017 -0.1415161 -0.28687477 -0.031013928 -0.080172956 0.17442502 -0.22180688
-0.14935131 -0.064839855 -0.026109831 -0.029905463 -0.02672123 0.20915268 0.32803014 -0.084075384
-0.046731118 -0.24829282 0.0059956433 0.020515533 -0.05414379 0.0053841174 0.28562668 0.0046047447
-0.21174732 -0.11572023 0.3569269 0.08367794 0.238499 0.012902067 -0.12006929 -0.15694936
0.020162985 0.30029115 -0.07880041 0.30255052 -0.30509543 -0.012868342 -0.23022845 -0.098334275
0.35422587 0.26681095 -0.070127584 0.08484682 0.19637138 0.12446538 0.11597746 0.19904387
-0.10719583 -0.011411145 0.09231882 0.12277244 0.14615542 -0.15301885 -0.149997 0.21814157
0.1245835 0.07448714 -0.18892246 0.1405794 0.10110469 0.018119272 -0.28436503 -0.2371696
0.036449444 0.23454185 0.100639425 0.11608647 0.12529548 0.09085634 -0.15502368 -0.0026988736
0.034553286 -0.19571286 0.36656284 0.2664067 0.19390503 -0.021255178 0.019144127 -0.00053889415
00000000: 992c 933e 4dbc 04bc c40f a2bd dd39 753e
00000010: 7f53 ff3d add5 b7bc 4cac 1bbe af84 c0bc
00000020: 2d3b 9a3e 8dd8 153e ad37 e13c 9ee6 30bd
00000030: 267c 993e 499b 7b3e 1ca3 773d 018a 0e3e
00000040: 0f2f 103e 1bbb a83e 7521 4cbe 94b5 c13e
00000050: 09ed 803e 0c80 bdbd b57f 74be 99d4 393e
00000060: 51dc a3be 678d 9a3d 09d6 22be ab6a 56be
00000070: 8936 81be 48c6 213e 0e5b adbe 3910 73be
00000080: c7da 1fbe f645 8bbd 2f58 2bbe 8b46 983d
00000090: abf2 203d 29fe 9e3d 7042 723e 6f31 ac3c
000000a0: 0942 13bd 0aca b03c 50fa b03e d692 ec3d
000000b0: e9a2 00be 9c1c 983e 5aa5 e6bd 12f9 8e3e
000000c0: b90a 7dbe b565 2b3e 99e9 10be 40e1 92be
000000d0: ec10 febc b831 a4bd 799c 323e 5821 63be
000000e0: 8def 18be c2ca 84bd 49e4 d5bc 4dfc f4bc
000000f0: 7be6 dabc 1f2c 563e 91f3 a73e b72f acbd
00000100: 2169 3fbd 7940 7ebe 1a77 c43b 3110 a83c
00000110: e1c5 5dbd 406d b03b a93d 923e 66e3 963b
00000120: 4ad4 58be bafe ecbd 1fbf b63e 575f ab3d
00000130: 1539 743e 3163 533c e3e6 f5bd 55b7 20be
00000140: d82c a53c c3bf 993e 1c62 a1bd e7e7 9a3e
00000150: 7835 9cbe bdd5 52bc 02c1 6bbe 7b63 c9bd
00000160: 185d b53e 729b 883e 0d9f 8fbd 2bc4 ad3d
00000170: 9415 493e b5e7 fe3d 9785 ed3d 28d2 4b3e
00000180: 7d89 dbbd d0f5 3abc a611 bd3d 1e70 fb3d
00000190: c4a9 153e f9b0 1cbe d098 19be 8160 5f3e
000001a0: a225 ff3d b78c 983d e474 41be 0cf4 0f3e
000001b0: fa0f cf3d de6e 943c 4b98 91be 96dc 72be
000001c0: 034c 153d bd2b 703e 0b1c ce3d bebe ed3d
000001d0: 754d 003e e412 ba3d 87be 1ebe 96df 30bb
000001e0: bf87 0d3d f468 48be 20ae bb3e 7566 883e
000001f0: 0a8f 463e 571f aebc 25d4 9c3c 9344 0dba

fc2.weight f4 [64, 128]
-0.11406495 -0.08506291 -0.05906779 0.11011789 -0.23291565 0.05469662 0.20328687 -0.14303231
-0.35575852 -0.3766518 0.017329957 -0.0232777 -0.2466187 0.18365018 -0.037120238 -0.117258854
0.078833394 0.049233347 0.15012136 -0.014991064 -0.03314335 0.065800525 0.12286983 0.031429704
0.3623544 -0.2719875 0.55334765 0.21238726 0.3335287 0.10042646 0.42496908 0.6096837
-0.111677326 0.021537848 0.30269048 0.094590604 -0.1772012 -0.043660205 -0.013752138 0.21620685
-0.09657135 -0.20094126 0.025964532 -0.117984764 -0.06835952 -0.39818528 0.13959503 -0.023440635
0.27957904 0.04723291 -0.008508489 0.28209952 0.20077121 0.22158733 -0.2205832 0.21984856
-0.122416034 0.17416316 -0.0832272 0.1882789 0.0026182916 -0.049993474 0.03038168 0.2169328
0.21846665 0.054084674 -0.2187772 0.11673206 -0.069428764 -0.016215473 -0.25747284 -0.100698724
-0.033558466 -0.13437195 -0.08819754 -0.06343829 -0.22720666 0.07772506 -0.036986366 -0.09724122
-0.027065909 0.027361458 0.36840189 -0.45421454 0.17440058 -0.059903927 0.36718208 0.017358089
-0.22169128 -0.13431607 -0.14998683 0.22272839 0.15264514 0.06372312 0.024280535 0.082424566
-0.037136756 0.027379831 -0.18329398 0.012219391 -0.10361098 0.085124746 0.18533406 -0.03519772
-0.38922754 -0.1955857 -0.07189509 0.006943524 0.040023908 0.20205212 0.2207642 -0.05766069
-0.14481567 -0.2030542 0.18843578 -0.12143853 -0.081380874 -0.19094294 0.33105835 -0.30080262
0.16993746 -0.045837488 -0.085585065 -0.12854497 -0.08713149 0.29076898 0.12608843 0.38495916
0.22356133 -0.011226076 -0.12127127 0.09342908 0.37170783 -0.13505854 0.0042520096 -0.016907739
0.5302672 -0.34004855 0.336036 0.19765441 -0.19300292 0.23132922 -0.4002032 0.36998382
0.1305125 0.0918651 0.081906505 0.03417172 -0.4157747 -0.0005956847 -0.10780723 -0.14805825
-0.32743937 0.5651903 -0.36079416 -0.021262268 -0.011623363 -0.12696774 -0.12690306 -0.37210128
-0.19014648 0.057021104 -0.16972551 0.1667121 0.14849792 -0.13126206 -0.059558954 -0.04908383
-0.4601563 0.40067577 -0.029679973 -0.23109032 0.19020712 0.16809528 -0.07048911 0.14136
-0.07985852 0.018768074 0.017329127 -0.15717532 -0.04164208 -0.17390889 -0.1277022 -0.07025181
0.2093758 0.04486756 0.01353512 0.06568496 0.095269084 0.3992199 0.08666026 -0.094285786
0.015308325 0.037098505 0.03884457 -0.15526432 -0.14736119 0.035719275 0.069378436 -0.02215874
0.036946516 0.019036142 0.1302004 -0.023329103 0.038661934 -0.2348528 -0.30873522 -0.20532934
-0.30285484 0.2747525 -0.23706917 0.30867544 0.07618983 0.28841418 -0.23096688 -0.22486699
0.0027716795 0.25861105 0.050992634 0.06531277 -0.0670217 -0.0673143 0.03130367 -0.07958218
0.053631205 -0.05375637 -0.085476935 -0.36663368 -0.5413109 0.120073035 0.05746716 -0.13050844
0.38667026 -0.14147168 -0.08027684 0.079468615 -0.017664663 0.032226942 -0.41078085 0.089578606
-0.3416589 -0.499518 0.10757105 0.078223765 0.21538395 -0.052831322 0.31910086 0.07879522
0.23713735 -0.0033033665 0.0202015 -0.21691781 -0.28981373 -0.07765637 -0.04472187 -0.082488626
00000000: e29a e9bd 7735 aebd 11f1 71bd 7d85 e13d
00000010: 7181 6ebe 9009 603d 6f2a 503e 1077 12be
00000020: fb25 b6be 81d8 c0be 8ef7 8d3c e0b0 bebc
00000030: 9d89 7cbe cb0e 3c3e 640b 18bd 6925 f0bd
00000040: 6773 a13d e8a8 493d 6ab9 193e 149d 75bc
00000050: 52c1 07bd 6dc2 863d 2da3 fb3d 6fbc 003d
00000060: 8486 b93e f241 8bbe 31a8 0d3f 0c7c 593e
00000070: 46c4 aa3e 63ac cd3d 8c95 d93e 3b14 1c3f
00000080: 15b7 e4bd 2470 b03c 3ffa 9a3e b8b8 c13d
00000090: 3b74 35be 0bd5 32bd a650 61bc 5465 5d3e
000000a0: 33c7 c5bd 8cc3 4dbe 92b3 d43c ffa1 f1bd
000000b0: 1300 8cbd f1de cbbe 00f2 0e3e 9306 c0bc
000000c0: fc24 8f3e 4c77 413d 3067 0bbc 596f 903e
000000d0: f896 4d3e cae7 623e 90e0 61be fb1f 613e
000000e0: 42b5 fabd d457 323e 0673 aabd 2fcc 403e
000000f0: a597 2b3b f5c5 4cbd 00e3 f83c a223 5e3e
00000100: b9b5 5f3e e487 5d3d 2107 60be 3811 ef3d
00000110: ab30 8ebd 50d6 84bc 7bd3 83be 223b cebd
00000120: 9a74 09bd cd98 09be e9a0 b4bd efeb 81bd
00000130: dda8 68be 512e 9f3d 047f 17bd 6826 c7bd
00000140: 53b9 ddbc 2325 e03c 2c9f bc3e cf8e e8be
00000150: 1196 323e d25d 75bd 4aff bb3e 8d32 8e3c
00000160: 0a03 63be 278a 09be 2696 19be e912 643e
00000170: 024f 1c3e 4481 823d f9e7 c63c 36ce a83d
00000180: b61c 18bd ab4b e03c 6bb1 3bbe d733 483c
00000190: fe31 d4bd e255 ae3d 36c8 3d3e 7c2b 10bd
000001a0: d548 c7be 9e47 48be bc3d 93bd 8086 e33b
000001b0: 1cf0 233d c0e6 4e3e 0310 623e 9e2d 6cbd
000001c0: 8f4a 14be 71ed 4fbe 4ff5 403e c4b4 f8bd
000001d0: 04ab a6bd 8c86 43be 7b80 a93e cd02 9abe
000001e0: 1604 2e3e 17c0 3bbd 3947 afbd 4ba1 03be
000001f0: ff71 b2bd acdf 943e 531d 013e 5e19 c53e
00000200: 43ed 643e 93ed 37bc 125d f8bd bf57 bf3d
00000210: 7d50 be3e c94c 0abe 7154 8b3b 1982 8abc
00000220: 97bf 073f d81a aebe e90c ac3e eb65 4a3e
00000230: 8fa2 45be 91e1 6c3e 6fe7 ccbe 856e bd3e
00000240: 12a5 053e c523 bc3d 99be a73d a5f7 0b3d
00000250: 6ce0 d4be b927 1cba 09ca dcbd 959c 17be
00000260: 22a6 a7be 50b0 103f 03ba b8be 352e aebc
00000270: eb6f 3ebc d503 02be e0f2 01be 0f84 bebe
00000280: c2b5 42be f68e 693d 86cc 2dbe 94b6 2a3e
00000290: d70f 183e 9069 06be 17f4 73bd 200c 49bd
000002a0: 9b99 ebbe 6025 cd3e 6a23 f3bc f1a2 6cbe
000002b0: a8c5 423e 2b21 2c3e 985c 90bd adc0 103e
000002c0: dd8c a3bd 81bf 993c d0f5 8d3c 91f2 20be
000002d0: e390 2abd 2c15 32be 5ec4 02be 2ee0 8fbd
000002e0: 9c66 563e 0cc7 373d 68c2 5d3c d685 863d
000002f0: 701c c33d 8d66 cc3e ef7a b13d e818 c1bd
00000300: c5cf 7a3c 9af4 173d 7c1b 1f3d 9cfd 1ebe
00000310: dae5 16be 604e 123d 4816 8e3d 3f86 b5bc
00000320: 3b55 173d aff1 9b3c 4153 053e ad1c bfbc
00000330: fa5b 1e3d 417d 70be 8b12 9ebe db41 52be
00000340: ca0f 9bbe 5cac 8c3e 43c2 72be b50a 9e3e
00000350: 6a09 9c3d 06ab 933e 9582 6cbe 8843 66be
00000360: 11a5 353b ab68 843e a7dd 503d b4c2 853d
00000370: ac42 89bd 14dc 89bd 4738 003d fbfb a2bd
00000380: 65ac 5b3d a42f 5cbd 880e afbd 69b7 bbbe
00000390: 5a93 0abf dae8 f53d af62 6b3d 01a4 05be
000003a0: a5f9 c53e f4dd 10be 2f68 a4bd 71c0 a23d
000003b0: 7cb5 90bc 6600 043d de51 d2be fd74 b73d
000003c0: eaed aebe d3c0 ffbe 364e dc3d c833 a03d
000003d0: 9c8d 5c3e a865 58bd 3061 a33e 635f a13d
000003e0: 22d4 723e 4b7d 58bb 9e7d a53c b41f 5ebe
000003f0: 7762 94be 4e0a 9fbd 482e 37bd ccef a8bd

fc2.bias f4 [64]
0.02165072 0.0844916 -0.024030538 -0.120040245 0.15946926 0.10487204 -0.005981035 0.05260868
0.13602954 0.022371493 0.15284505 -0.0050277705 0.02196471 0.059164423 0.13631862 0.040313303
-0.0041617746 -0.015328159 -0.022111189 -0.07958946 0.031453095 0.029756548 0.10398297 0.10848142
0.025919538 0.08572191 -0.0854109 0.010001715 0.18020827 -0.046286747 0.11296052 -0.0740395
0.09430309 0.113757245 -0.033777665 0.14784926 0.015258298 0.051677812 0.15327573 0.027883317
-0.08629529 0.038207132 -0.06479287 -0.041525934 0.0035196678 0.10331648 0.022194954 0.08221512
-0.044029776 0.15403286 -0.053941637 -0.042572416 0.099126294 0.08326684 0.14751679 0.014017903
-0.0141886175 0.02730456 0.10698871 -0.034483947 0.018111821 -0.07113184 -0.06204544 -0.017702011
00000000: da5c b13c ef09 ad3d b1db c4bc a9d7 f5bd
00000010: e94b 233e 27c7 d63d 8ffc c3bb 337c 573d
00000020: 544b 0b3e 6c44 b73c 6a83 1c3e ffbf a4bb
00000030: 56ef b33c 6556 723d 1c97 0b3e 901f 253d
00000040: 7f5f 88bb f522 7bbc 8622 b5bc ccff a2bd
00000050: f6d4 003d 01c4 f33c 06f5 d43d 822b de3d
00000060: 3655 d43c f88e af3d e9eb aebd 3cde 233c
00000070: 8488 383e 2c97 3dbd d857 e73d 05a2 97bd
00000080: fa21 c13d 8ff9 e83d 735a 0abd cc65 173e
00000090: f1fd 793c 1dac 533d 50f4 1c3e 8e6b e43c
000000a0: 96bb b0bd 157f 1c3d 20b2 84bd 1917 2abd
000000b0: 3aaa 663b 9797 d33d 31d2 b53c 6760 a83d
000000c0: 9158 34bd caba 1d3e e8f1 5cbd 6a60 2ebd
000000d0: ba02 cb3d ce87 aa3d a40e 173e 59ab 653c
000000e0: 6077 68bc d0ad df3c e61c db3d 0a3f 0dbd
000000f0: 3e5f 943c 92ad 91bd 5c23 7ebd cf03 91bc

fc3.weight f4 [1, 64]
0.3979554 -0.6185267 -0.045357052 0.015695967 -0.13668709 -0.23276553 0.104120016 -0.1624923
-0.11283443 0.008888969 -0.109730504 0.0036502713 -0.0018729937 -0.16257697 -0.16695334 0.052218005
0.022820173 0.05213012 -0.4017115 0.025143081 -0.17420883 -0.13026516 -0.13677996 -0.14173421
-0.11251262 0.29328564 0.102244034 0.049042538 -0.11885499 -0.004241886 -0.095724925 -0.09026642
-0.31925938 -0.22055288 -0.005251183 -0.19670159 -0.12012252 -0.089818 -0.22236288 -0.2293789
0.0037029616 -0.18558067 0.029453896 0.101729505 0.026039261 -0.093839034 0.355735 -0.14131847
0.029774167 -0.22790138 0.07543833 0.049869735 -0.12321998 -0.12124409 -0.16146116 -0.15802939
0.07327443 -0.4720911 -0.42654654 0.08988982 -0.17106655 0.03452769 -0.017799519 -0.35303083
00000000: cfc0 cb3e c457 1ebf 51c8 39bd d494 803c
00000010: b3f7 0bbe 165a 6ebe e03c d53d 6264 26be
00000020: bd15 e7bd 0aa3 113c 63ba e0bd 6439 6f3b
00000030: 3d7f f5ba 947a 26be d1f5 2abe 8ce2 553d
00000040: 5ff1 ba3c 6586 553d 21ad cdbe ddf8 cd3c
00000050: cd63 32be 3b64 05be 0c10 0cbe c622 11be
00000060: 046d e6bd 8929 963e 5265 d13d d4e0 483d
00000070: 3f6a f3bd 85ff 8abb 6e0b c4bd 9add b8bd
00000080: f775 a3be 9dd8 61be 1e12 acbb 246c 49be
00000090: cc02 f6bd 80f2 b7bd 18b3 63be 4de2 6abe
000000a0: 63ad 723b dc08 3ebe 4c49 f13c 8f57 d03d
000000b0: 4a50 d53c ae2e c0bd e622 b63e cab5 10be
000000c0: f4e8 f33c fb5e 69be 697f 9a3d 3544 4c3d
000000d0: c25a fcbd d24e f8bd 1356 25be 75d2 21be
000000e0: e810 963d edb5 f1be 4f64 dabe 2718 b83d
000000f0: 122c 2fbe e86c 0d3d 4cd0 91bc 75c0 b4be
